checkpoint.pth (torch, 80047 bytes, 8 tensors)

fc1.weight f4 [64, 37]
00000000: 85d5 bb3d 501a 92bd e420 933d a206 17be
00000010: ac67 22be b1df 4d3b 77f7 1c3d a320 3a3e
00000020: 29c1 f03d 89c7 ca3e 2eda 23bc aa91 f3bd
00000030: ee89 75bd cd41 593c 419f 263e 84dc 2e3b
00000040: d4e0 093e 0bf4 d43d 5d07 50bd 85d3 e8bd
00000050: 4516 0b3e 578b 2a3d c33a 943d 71e7 003e
00000060: be85 df3c 327a c83e 44c2 343d 0fb6 a4be
00000070: e57b cbbe 2a0d 18bf ade7 47be cbfe 5f3e
00000080: 7224 0cbe 2142 a73d 22e9 6abd 442f f5bc
00000090: fc67 0fbd dbd1 353e e6ca f93d 1092 a73d
000000a0: 0e9b a93c 14bc d0bd d0d2 bb3e bac4 53bf
000000b0: ddd4 3ebf 5f8e 04bf 9548 d3bf 31f0 4d3d
000000c0: 8579 523d 896a 7f3d 8b96 c03d 3dde 633e
000000d0: a336 6b3d 7d20 bb3d b973 523d fb2f aa3d
000000e0: cace 4e3d 30cc f43c 04fd dbbd e6b5 aabd
000000f0: 16b2 90bd 4ab9 7b3d 56ea 7fbc 3ffd c43d
00000100: 2c18 0e3d 4256 013d 8811 2cbd c3c1 84ba
00000110: 436a 0d3e 671c 303e 1460 513e 813c 603e
00000120: 3943 f6bc e233 bd3b ab24 623e f6f5 1b3e
00000130: 2a78 e83d 21b0 c2be c459 07be df6f b2be
00000140: 3c48 85be 1e8b b43e af42 463e 2844 15bf
00000150: 830f 183d 7779 b4bd c66c 1f3d 0102 22bd
00000160: 4847 87be 5105 7bbe 3484 1abd 24f0 ac3e
00000170: a25f 243e 4345 f4bc efbf e7bd 12db 023d
00000180: 0dd2 2c3e 2666 47be bf02 f2be 1aaf 55bf
00000190: f4cf f43e ba69 713e 018f 7abe 411b 0ebe
000001a0: 232f 55bd 6f48 a53c 6e70 213c 181d 0fbf
000001b0: 0b40 163d 585e b03d a42d 1fbd 1645 e03d
000001c0: b2eb cbbd 5a33 173d fa94 5f3d 6211 92bd
000001d0: d497 2ebe d5a4 82be 47de 5e3e 543e 4d3e
000001e0: 90e4 903d 7e44 55bd b4c0 93bc 69f9 223e
000001f0: 3015 aabc df47 e93c d2f6 93be 09e5 033e
00000200: 7a54 85bb aec7 c3bd b1d6 ec3d b165 353e
00000210: 3f3e f0bc 83a4 bdbc 3f5e 80be 96ba 40bf
00000220: 1b1b febc 199b 193e 47d2 463c cfbe 6c3c
00000230: d172 9c3e 2004 d8bb 4585 983e 8299 5f3e
00000240: 9312 f0be f22e f9bd 75b0 afbc 2929 f63b
00000250: 60db 0abe a85e 42be 8c5f a0bc d557 f9bd
00000260: b940 aabd a292 b13e d2b4 a2be 7a4f 88be
00000270: bf99 86be 605b f8bf d1bc 313b 1105 5ebc
00000280: f17c 43bd 15da 99bd 40b6 edbd 10c3 aabd
00000290: cbf1 d4bd 6bf7 863c 7b34 c23d c466 153e
000002a0: c5bd abbc cc99 8dbd 81a3 083d e2cd 383d
000002b0: bcf7 773e 4f49 873d 0cec 62bd 8a9d 4e3e
000002c0: 8c45 773d 4fd1 91bd dd68 963d 0c17 243e
000002d0: ad17 df3d f52d 023e db30 9c3c aa6b 3abc
000002e0: 6d69 a73b 919b 73be 24ec 153d 36c9 7c3e
000002f0: e23f b0bd 0bb6 9a3d 4f62 c03d 2bf3 a73e
00000300: 2b00 ddbc 9f6a bbbd c8e7 81be af5f 4a3d
00000310: 27c8 1abd 8128 88bd 1db3 35be 1920 a03d
00000320: d642 083e f9e6 193d a8fb c1bd f967 c2be
00000330: 7714 13bf 8faf a13d 340a a73d fded 083e
00000340: 0c2a 4e3d 4faf 9ebd 7f50 093e fc58 3abd
00000350: 5474 0abe 0912 94bd e8cf abbe 9c5a 0a3d
00000360: 7d7d ab3d b68e ccbd 66ff 293c f030 cebe
00000370: 3ccb 0c3e 7308 a93c 6ef4 103e eee2 113e
00000380: 0a11 4ebe aa85 a9bd c05c ecbe cd1c 1ebe
00000390: 69ef cebd 3fdf 7bbd 612a ec3e f9a9 433e
000003a0: 97c8 713d 5dc7 063d 761f c83d b0a6 1c3e
000003b0: e28a 8e3e b9d8 6abd 1f87 5dbe 2467 803d
000003c0: 169b b53e d51d c63e 7bb2 b3bd 920c 9dbd
000003d0: 0fc2 b83d a7f5 083e e2f4 ac3e 5f8f 7ebe
000003e0: 8dc8 823d 2ee7 ea3b 0bda 82bb 4f04 3fbc
000003f0: a4a2 93bd a841 abbd 403f cd3d 9528 193e
0.09171585 -0.07133925 0.07184008 -0.14748624 -0.1585986 0.0031413848 0.03832194 0.18176512
0.117555924 0.39605358 -0.010000749 -0.118930176 -0.059945993 0.013260317 0.16271688 0.002668173
0.13464671 0.1039811 -0.050788272 -0.11368469 0.13582714 0.04163679 0.072377704 0.12588288
0.027285453 0.39155728 0.04413058 -0.3217015 -0.39742962 -0.59395087 -0.19521971 0.2187454
-0.13685778 0.0816691 -0.05735124 -0.029929765 -0.035011277 0.17755835 0.12196903 0.08182156
0.020703819 -0.10192123 0.36684275 -0.82722056 -0.74543554 -0.5177974 -1.6506525 0.050277893
0.05138542 0.06235746 0.09403714 0.22252746 0.057425153 0.09137056 0.051379893 0.08309933
0.05049018 0.02988252 -0.10741618 -0.083354756 -0.07065217 0.061456002 -0.015619835 0.09618615
0.03469102 0.031576402 -0.042008907 -0.0010128546 0.13810067 0.17198335 0.20446807 0.2189808
-0.030061351 0.005774007 0.220843 0.15230545 0.113510445 -0.38025 -0.13217837 -0.34850976
-0.26031673 0.35262388 0.19361375 -0.58307123 0.037124168 -0.0881223 0.038922094 -0.039552692
-0.2642157 -0.24513747 -0.037723735 0.33776963 0.16052106 -0.029818183 -0.11315905 0.031947203
0.16877003 -0.1947256 -0.4726772 -0.8347031 0.47814906 0.23575488 -0.24468614 -0.13877584
-0.052046906 0.02017614 0.0098534655 -0.5590377 0.03668217 0.08611745 -0.038861886 0.10950677
-0.09957065 0.036914207 0.054585434 -0.07132222 -0.17050105 -0.25516382 0.2176448 0.20043308
0.07074845 -0.052067272 -0.018036224 0.15915455 -0.020762056 0.028476654 -0.28899246 0.12880339
-0.0040689083 -0.0955957 0.11564387 0.17714573 -0.029326556 -0.023149734 -0.25071904 -0.7528471
-0.031018784 0.15000571 0.012135095 0.014449789 0.30556348 -0.0065922886 0.29789177 0.21835902
-0.4688917 -0.12167157 -0.021446446 0.007512231 -0.13560247 -0.18981421 -0.01957681 -0.12174956
-0.08313126 0.34682184 -0.3177858 -0.26623136 -0.26289174 -1.9402885 0.00271206 -0.013551013
-0.047726575 -0.07512299 -0.11607027 -0.083379865 -0.10397681 0.0164754 0.09482666 0.14589983
-0.020964513 -0.069141 0.033359054 0.04511822 0.24215597 0.066057794 -0.055400893 0.20177284
0.06036906 -0.071200006 0.0734422 0.16024417 0.10893188 0.12712844 0.019066265 -0.011378208
0.0051090033 -0.23789813 0.036602154 0.24686131 -0.08605935 0.07554253 0.09393751 0.3280271
-0.02697762 -0.09151196 -0.25372148 0.049407657 -0.037788536 -0.066483505 -0.17744108 0.07818622
0.13306746 0.03757379 -0.09471828 -0.3796995 -0.574531 0.07894813 0.08156243 0.13372035
0.050333068 -0.07748281 0.13409613 -0.04549502 -0.13520938 -0.072300024 -0.33557057 0.033777818
0.08373544 -0.099881575 0.010375833 -0.4027171 0.13749403 0.020633912 0.14155743 0.14246723
-0.20123687 -0.082774475 -0.46164513 -0.15440674 -0.101042576 -0.0614922 0.46126083 0.19107808
0.059029188 0.03290497 0.09771626 0.15297961 0.27840334 -0.05733559 -0.21633576 0.062696725
0.35469884 0.38694635 -0.08774277 -0.07668413 0.09021389 0.13374959 0.3378058 -0.24859379
0.06385908 0.007168672 -0.003993278 -0.011658742 -0.072087556 -0.08362132 0.100218296 0.14956887

fc1.bias f4 [64]
00000000: ce2a 333e 12a8 3c3d 4c8a 88bd 4f77 7fbd
00000010: 402f 663e 4352 f3b9 12d5 a1bd d54b 803d
00000020: fbf3 933d 4759 1dbe 3d0c 3e3e fdb6 323e
00000030: 530c 573e c341 8d3d f5d2 97bd 006a edbd
00000040: b62c 71bc 3f45 e4bd 8427 9e3d 9e3e e6bd
00000050: bae9 18be 0efa fe3d 8807 563c f986 1dbe
00000060: f574 8cbd b36f 093e 779e 273d fd30 2abe
00000070: 862f e93d c3f1 973d 30eb d13b 1026 1dbe
00000080: abdf c63d ff6e 923b 11be 1bbe e93a 0d3e
00000090: f98e 18bd d88a 563d 3cec 43bc ed8c dbbd
000000a0: 4d7d d0bb 069a 59bd 5037 0dbe 5c27 133e
000000b0: 81ff 98bc c194 97bd 4c1c 883c 7734 24be
000000c0: 6367 09be a987 a93d 2256 0ebe 7a1f 483e
000000d0: a4bb 30bc d27c 0dbe 28ac 0dbe 8994 173d
000000e0: cdbe b83d db14 c3bc 8899 9bbd f23d 98bc
000000f0: 61c5 2a3d 2b68 443d 678b 683d 1df0 813d
0.17496797 0.04605872 -0.06667003 -0.06236964 0.22478962 -0.00046409862 -0.07901968 0.06264464
0.0722427 -0.15366088 0.18559356 0.17452617 0.21000795 0.06897309 -0.07413284 -0.115924835
-0.014720133 -0.1114602 0.07722381 -0.11242412 -0.1493291 0.12450038 0.013063319 -0.15383519
-0.06858245 0.13421516 0.04092261 -0.1662025 0.113860175 0.07419159 0.0064062104 -0.15346551
0.0971063 0.004468798 -0.15209223 0.13792004 -0.037245724 0.052378505 -0.011958178 -0.10720239
-0.0063625933 -0.053125404 -0.13790631 0.14370483 -0.018676521 -0.074014194 0.016615056 -0.16035639
-0.13418345 0.08277828 -0.13900045 0.19543257 -0.0107869245 -0.13817146 -0.13835204 0.03700689
0.09020767 -0.023813656 -0.07597643 -0.018584225 0.04169214 0.047950905 0.05677357 0.06344626

fc2.weight f4 [128, 64]
00000000: d55f 673d dcee 9c3c 3c50 e2bd f1cc c03d
00000010: e08f 24bd e183 2bbe aab8 b6be 0c77 853d
00000020: a386 5f3e e7fa 023e 95ad 3ebd de71 40be
00000030: 4264 d3bd 1187 733e bdc3 91be 0ad5 ff3d
00000040: 2914 02be a135 9abd c0f7 c3bd e610 56be
00000050: 887a 97be 59a9 4ebc 6850 61bd a438 9fbc
00000060: 15e2 b0be fb1f 9abe 5c73 113e 19d7 373c
00000070: 596f 1cbe f61d a7be b8d7 883e 6f27 a2bd
00000080: 7629 74be fa25 82bd c890 e13d daa0 dabb
00000090: 95dd a5bd 36c6 50be 9b5a bd3d 1541 43bf
000000a0: e34e 98bd f720 18be 47f3 a33c dd9c 0bbe
000000b0: 704a eb3d 01f5 bcbd d97f 18be 7e5b db3d
000000c0: 8027 68be d685 c3be 77db ae3d 056a 5cbe
000000d0: d8b3 7b3d fa83 02bf 10e4 4f3e 29ab 6dbe
000000e0: ec29 5f3b 6b76 aebd b03a 05be 8289 193d
000000f0: 6c57 8d3d 3c98 7d3d de8d 43bd 92b9 88bd
00000100: a007 a9be a55d 5cbc 18d1 80be 07de b6ba
00000110: 4b65 273d 1e40 e9bb 578a 10be 03dc 2e3e
00000120: c8dd f6bb 5b06 d3bd 4c41 ef3d 0bce c0bd
00000130: 69c1 c63d 4732 573e 244f 75be 0bee a5be
00000140: f834 24be d753 223e 3c09 e83d 08cf b6bd
00000150: 9e4a 64bb 45d1 30be d5cc 35be 33dd 26bf
00000160: b108 62bd 2b46 1cbe 5869 c8bd ee62 6cbf
00000170: a8ca 20bd c1f0 efbe 1179 86be 7997 8dbe
00000180: 62ce efbe 6d21 7b3e 06cb c03c e239 3dbe
00000190: a0a4 1abd 2686 6bbd 199a 3c3e 9020 4a39
000001a0: 1bc3 d83c 5ee4 763d 28d7 cfbb ee69 aebe
000001b0: ddab 6bbe a499 6abd 660a 00be 3b2e 49be
000001c0: 8616 14be 6857 1dbe 565a a23d 0555 333e
000001d0: 18c7 e53c cd41 4abf 9e71 b8be 7287 153e
000001e0: 8b0b 673d 2156 323e d24a fa3d 0574 813e
000001f0: 95e6 a1be 2d3f b43d 6929 5d3c 4bfa b8bd
00000200: 58cf 6cbe 0e4a 85be d5c3 fbbc fae0 88bd
00000210: 2196 0dbd 3754 23be fe84 98be d636 893c
00000220: 540c 733c 0db4 16bd 88af 2b3e bd2f 9ebe
00000230: 29d2 0e3e d07f 95bd 6910 6d3d b98a 18bd
00000240: d89f 8cbe 9fef 74be a476 39bd ebe2 6bbd
00000250: 1c94 84be 8266 10be d226 98be fd25 8ebe
00000260: 8ed4 16be e300 febe 2af6 243e f6c5 edbe
00000270: fb4b cbbc 0b0f 803e 4a15 25be dfb1 113d
00000280: 8b4d b3bd c2f0 c83d 21a2 7ebc 7f6f 253d
00000290: ab8a 413e 07cb ccbd f240 dc3a 1213 c5be
000002a0: 8d14 0b3d 330b 16be 5bda 69bd 9529 d3bd
000002b0: e403 98bd dd00 1a3d d73e adbd d27b 8fbe
000002c0: 51f6 c9bc 1f8f 72be d1fa bd3d a68f 043e
000002d0: 2b1f 37bf 308d 98be d0fb 95bd cbc6 47bd
000002e0: 87bb 06be 4840 ddbd 679a 88bc 2013 b13e
000002f0: 685c f6bd 2642 71be 0c94 7c3e 2913 09bd
00000300: 35ea a5bd 97ee 11be fb30 6cbe 3248 13be
00000310: 03ce 3ebd 0b07 61bd 9e29 0a3d 1b19 8dbc
00000320: a1a6 01bd f64b a93d 3d9d d3bd dbb2 ed3d
00000330: 54ee 12be 04aa ec3d 5128 633c 97d8 21bd
00000340: 4f98 c0bd 1b75 f9bc 90cf f7bd cc51 12be
00000350: 5ada af3d 3cd9 f53d b840 2fbe 3a3b c23d
00000360: 153b de3d 3bc3 58bc c3ff 6d3e 0fc7 aa3d
00000370: 5305 883e 8116 5ebe 2661 42bc 98d9 873d
00000380: a2ee 18be 43be 12be 3db0 713d 9844 9bbc
00000390: 4905 a4be afa3 5b3e 5b87 a3bc 063a 98bd
000003a0: b869 19bd db30 3c3e f3e1 4bbd 274a 14bd
000003b0: ec7e 12bd d744 133e 5826 08be 6edf 493d
000003c0: 350c 96bd 37cd 623d ba7d 51bd 1371 fb3d
000003d0: 22f6 443e 1906 a1bb ed3f 9c3d 0cc4 543d
000003e0: c812 b23d e9d4 9cbd 1e4b 33be 3026 aa3d
000003f0: c66f 56bd 5e8f 0a3d 745e 60bc 0d01 8ebd
0.056487877 0.019156866 -0.1105046 0.094140895 -0.040176272 -0.16749527 -0.35687762 0.06516847
0.21828704 0.12791024 -0.04655226 -0.18793437 -0.10321857 0.23781992 -0.2846965 0.12491806
-0.12703003 -0.0752976 -0.09568739 -0.20904884 -0.2958567 -0.012613618 -0.055008322 -0.019436188
-0.34547487 -0.30102524 0.14204162 0.011220717 -0.15276851 -0.32640046 0.2672708 -0.079176776
-0.23843941 -0.063549 0.11013943 -0.006672007 -0.08098904 -0.20388111 0.09245797 -0.7627118
-0.074369214 -0.14856325 0.020013465 -0.13634057 0.11488807 -0.09226418 -0.1489252 0.1071081
-0.22671318 -0.38188046 0.08537953 -0.21524818 0.06145081 -0.5098263 0.20301843 -0.23209824
0.0034052087 -0.0851868 -0.13010669 0.037484653 0.0690144 0.06191276 -0.047742717 -0.0667602
-0.3301363 -0.013450061 -0.25159526 -0.0013951667 0.040868085 -0.007118239 -0.14115272 0.17076115
-0.0075337626 -0.103039466 0.11682376 -0.094142996 0.09704859 0.21015273 -0.23955971 -0.32408175
-0.16035831 0.15852295 0.11329886 -0.08926207 -0.0034834514 -0.1726733 -0.17753918 -0.65181273
-0.05518407 -0.15261142 -0.09785718 -0.92338455 -0.039255768 -0.46863368 -0.2626424 -0.27654627
-0.46837145 0.2452447 0.02353431 -0.18479112 -0.037754655 -0.05750098 0.18418159 0.00019276352
0.026460221 0.06027638 -0.0063427873 -0.34065193 -0.2301478 -0.05727543 -0.12503967 -0.19646542
-0.14461717 -0.15365374 0.079273865 0.17512901 0.028049037 -0.79006654 -0.36024183 0.1460245
0.056407493 0.17415668 0.12221302 0.25283828 -0.31621233 0.08801112 0.0134986425 -0.090321146
-0.2312597 -0.26033062 -0.030733028 -0.06683536 -0.034567002 -0.15950094 -0.29788965 0.01674978
0.014834482 -0.036792804 0.16766179 -0.30895796 0.13947357 -0.07299769 0.057876978 -0.03724167
-0.274657 -0.23919533 -0.04527916 -0.057589453 -0.25894248 -0.14101604 -0.29717118 -0.27763358
-0.1472952 -0.49610052 0.16109529 -0.46440095 -0.024816504 0.25011477 -0.16121402 0.03557002
-0.087550245 0.09811546 -0.015541584 0.040389534 0.18900554 -0.09999662 0.0016804023 -0.38491112
0.033955146 -0.1465271 -0.057093006 -0.103106655 -0.07422617 0.03759848 -0.084592514 -0.28024155
-0.024653586 -0.23687409 0.09276355 0.12945423 -0.71531934 -0.29795218 -0.0732342 -0.048773568
-0.13157474 -0.10803276 -0.016675187 0.34584904 -0.12029344 -0.2356039 0.2466585 -0.03346554
-0.08101312 -0.14251171 -0.2306556 -0.14383009 -0.046583187 -0.054938357 0.033731095 -0.017223885
-0.03165305 0.082664415 -0.10332725 0.116063796 -0.14348727 0.115558654 0.013864593 -0.039513197
-0.094040506 -0.030451348 -0.12100136 -0.14289016 0.08586569 0.12004325 -0.17114532 0.09483953
0.10851113 -0.01323014 0.23242097 0.08338749 0.26566562 -0.21688272 -0.011863982 0.066332996
-0.14934781 -0.14330392 0.059005965 -0.018953606 -0.32035282 0.21449159 -0.019962003 -0.07432942
-0.037454337 0.18378012 -0.04977603 -0.03620353 -0.035765573 0.14381729 -0.13295877 0.049285345
-0.07326547 0.05537149 -0.051145293 0.122774266 0.19234517 -0.004914057 0.076293804 0.051944777
0.086949885 -0.07657797 -0.17509124 0.08308065 -0.05235269 0.03382813 -0.013694394 -0.06933794

fc2.bias f4 [128]
00000000: 50f2 b73d f8ef f7bc ae8d 99bd ddd7 90bd
00000010: 1687 f93d 9753 5f3d 02ac c23c 3ccb babd
00000020: e7ae 933d b198 4c3e bebc d33d bcb4 ebbd
00000030: f76c b5ba 6fc1 5cbe b6d6 58bd dbbe 90bc
00000040: cd7e 3d3d 92d2 923d 7a14 033e 7126 95bd
00000050: 2b39 053d 4faa 05bd 73df f3bd 1e79 14be
00000060: e69c abbd c66c d93c 9d40 7b3d 1e45 c53b
00000070: e6e3 203d d79c 253d 8467 fe3a f6d8 093d
00000080: 543a d7bd c290 133e 7a6d eb3d 5bf7 403c
00000090: 0b9d 7fbc 3fde a93d cefa 1dbe d4c1 fbbd
000000a0: af9c 933d 723f cdbc 8914 7c3d 778b b13d
000000b0: ec61 64bc b159 973b 2969 0abe 2b94 14be
000000c0: 8d54 963b ddce 0fbe 627f 673e 70c1 a5bd
000000d0: 3094 1d3e bb50 babd 935b 9bbd cd09 3c3e
000000e0: b8aa 943b 3edc dcbd 0717 563c 67d4 e63d
000000f0: c2b1 d5bc 8745 493d eafb 5c3d 68f6 d43d
00000100: 226b 47bd fbed 9a3b 324b 7339 497b 11be
00000110: 6150 cabc 236d de3d b51d 513b 66e1 3f3d
00000120: 8d61 8dbd 76b5 213d 1bf6 1b3d d56b b8bb
00000130: c796 553e 6f5f 583b 8853 ec3d e117 7fbd
00000140: 56c8 4abe 2538 95bc 32df f9bc 34f4 2c3e
00000150: 907f 903d 8ad1 c03d 91f8 80ba affb 8c3d
00000160: d7e2 dfbd 1a11 adbd 20ca 43bd c819 123c
00000170: aa11 2f3d 60b1 4cbd 3583 27be 2751 40be
00000180: 31db a7bd e1b0 eb3b bb7a a23b 643e 0ebe
00000190: 3688 2abe ea41 813d b300 ef3c 5be4 eebd
000001a0: 11d8 abbd 42de 0c3d dc2c 413e 7f6d 8ebd
000001b0: cb22 2c3e 1f7e 39bd c608 c8bd 0718 abbd
000001c0: 867f e4bd a2ed 803d 6104 9c3b 925b 2a3e
000001d0: 50bf efbd ff67 36bd 2b84 393e 4d1a 643d
000001e0: 7b34 05be 4ccf d7bd 4352 bb3d e2d7 d6bd
000001f0: b5d7 afbc c7b0 c9bc 9caf 4dbd 6ead 083d
0.08981764 -0.030265793 -0.074977264 -0.07072423 0.12183969 0.054523077 0.02376366 -0.09120795
0.07211094 0.19980122 0.10338734 -0.11509082 -0.0013841678 -0.21558164 -0.05293914 -0.017669132
0.046263505 0.07169069 0.1280078 -0.07282723 0.032525223 -0.032633122 -0.11907854 -0.14499328
-0.083795354 0.026541125 0.061340917 0.0060202023 0.03927984 0.040432777 0.0019409512 0.033654176
-0.10509172 0.1441069 0.1149549 0.011777724 -0.015601407 0.08294343 -0.15427706 -0.12292829
0.072076194 -0.025054667 0.06154302 0.08669179 -0.013939362 0.0046188463 -0.13516678 -0.14509647
0.004587716 -0.14043756 0.22607186 -0.08093536 0.1538856 -0.09097429 -0.07585826 0.18363114
0.004536953 -0.10784195 0.013067014 0.11270981 -0.026085738 0.049138572 0.05395118 0.10398561
-0.048686154 0.0047280765 0.00023202298 -0.14207186 -0.02469653 0.1086066 0.0031908576 0.046845816
-0.06903372 0.039479695 0.0380765 -0.005628089 0.20858298 0.0033015867 0.1153937 -0.062278632
-0.19802985 -0.018215248 -0.030501936 0.16890031 0.070555806 0.094149664 -0.0009839704 0.06883942
-0.10931938 -0.084505275 -0.047800183 0.00891728 0.042741455 -0.049973845 -0.16358645 -0.18780957
-0.08196104 0.0071927165 0.0049584783 -0.13890988 -0.16653523 0.063114 0.029175138 -0.11664649
-0.08390821 0.03439165 0.18864769 -0.069544785 0.16810147 -0.045286294 -0.097672984 -0.08354192
-0.11157136 0.06295325 0.004761264 0.16636494 -0.11706412 -0.044532772 0.18116824 0.055689145
-0.13008301 -0.105375856 0.091465496 -0.10490395 -0.021465162 -0.024620427 -0.050216302 0.03336852

fc3.weight f4 [64, 128]
00000000: 6b46 5e3d e5bc 3c3e 1bee 64bd 2000 443d
00000010: e3fc bbbd ebee 363d 0398 0f3e 3cd5 92be
00000020: db72 3f3e a769 e6bd 069a 063e 0792 18be
00000030: 9601 cdbc da8d 9bbe 9510 f53d 8f56 11be
00000040: fe9b 89bd 9714 343e ac8e 043d 3c36 febe
00000050: 98d3 f7bd 028f 0b3e 070b 83be 72ec 3d3e
00000060: 0edb b7bd e3d8 713e 8e08 44ba 2829 16be
00000070: d06f 063f 2356 c4bd 9275 c4be 0f32 383e
00000080: 6b61 81bd 9090 3b3c 0aa7 703d 1b8a 433e
00000090: 8087 91bd 4cc9 e9bd 90b8 b93b 78f8 ac3e
000000a0: 1a11 b7be ed59 6e3e 4640 cbbd d23d 4bbe
000000b0: 7e65 b1be fb92 c6be d95e 14be 1498 8fbc
000000c0: 7a0c 82bd 9cae e13d 2cce f73c f5fb 453e
000000d0: 3e63 96be 0c66 883e ce3b ecbd 3fa3 9bbd
000000e0: 9135 0d3c 705d 56bc 383e b1bc 3d36 04be
000000f0: b815 203e 6758 f13d be18 70bd 1b5b e6bd
00000100: 235f 543e fc89 783e 979e 00bf 79d0 3dbe
00000110: 23c8 ecbe 5941 dd3d 613e dabd 59e9 903d
00000120: aa92 473e 0867 18be cf1e 1d3e 5524 283e
00000130: 7564 cc3c 4de0 5abe 9a2e 643e ab92 133d
00000140: b1d1 3ebe ba49 a53d 1124 df3c 5db6 a03d
00000150: dad2 96be e6d8 373d 5409 f5bd 188c c3bd
00000160: 6395 c8bd f377 c43c 4021 443e 5729 a4be
00000170: 4acf 8d3c f7f5 acbd 6ef4 a7bc 4f88 a33e
00000180: 8d56 e83d 7566 213e 3a8c 20be a8e6 5a3d
00000190: 01d0 ab3c b85c 71bd bb32 bbbc 1a60 6dbd
000001a0: 7734 d4bd 5029 a4bd d147 ccbd 620b 94bd
000001b0: 15cf a33b f901 063d ec01 18be 4d31 97bc
000001c0: 5bae a9bd d84d ffbd 9397 aebe f7d7 813c
000001d0: d540 403c 1463 b4be f2aa 8d3e a85f 90bd
000001e0: f5e0 963d 2d44 c2be bfb5 93be 887d 06be
000001f0: e10a a33e bd3a 3e3e b4bf 41be ded9 35be
00000200: 24f2 3f3e 39d0 edbd e017 ac3e c8b8 af3d
00000210: be9f 8cbe 28e4 e23d bd86 50bd 9283 04be
00000220: e7f8 b2bc 2146 bf3d f8e6 c3bd 2c42 2e3d
00000230: ba28 e73e dc30 b4be df97 e13d 4151 aebe
00000240: a2dc 263e 01c8 5abe 8e59 e43d 2955 af3c
00000250: 5f96 c9be 8c96 913e e335 aa3d 47da a13d
00000260: 98d4 99be 6144 2c3e b75f 75be b953 f73d
00000270: 5e45 95be 947b 453e a722 373e 3c18 16be
00000280: 5160 683e 85e8 c2be ca49 3fbd 8b04 233d
00000290: 30ad a4bc 044b 0dbe ed80 09bd 0ea5 103e
000002a0: 2a81 a33e 3ae7 d73d 6053 2fbe 329b 383e
000002b0: ad34 6cbc f0a0 93be cc34 553e c5b7 1bbd
000002c0: a8d3 b33e 8dde e93d 46ba 42be ed91 13bd
000002d0: 1a61 dabc 70e1 af3b afe7 eb3e 1796 943e
000002e0: ba87 2f3e 7f16 61be e399 3f3e 058f 25bd
000002f0: 10e4 17bd d98e 20be e8a5 3dbe 60e6 863e
00000300: 962c 5dbe f1ba 713e 698c 9f3e 4fbc 2a3e
00000310: c48c b93e 12db 203b 1725 99bd 06be d3bd
00000320: c9c9 73bd b8c9 923d 8927 f3bc 54e4 8a3d
00000330: 9e73 183d 2acb 6ebe ade6 fcbb a749 12be
00000340: b4ee e0bd 0263 c03e b66f a9bc a935 a4be
00000350: ad53 29be 63dc debe 05e4 6a3d 936e fbbd
00000360: 8b24 4e3e d204 1ebe f9ce 24be f092 a13e
00000370: 3840 72be 45b9 07bd 0da5 a43c fc36 3b3d
00000380: be69 23be b02b 403d f8b2 663e c6fd 4f3e
00000390: f830 083d f938 adbc d488 563c 7046 cbbd
000003a0: 7497 18be b979 27be 340f edbb cdc4 dabd
000003b0: ef1e b6bc a220 93be c2ae 1e3e a3ff 41bd
000003c0: 5409 013e 5cc3 e63c 4913 7abe 008a b639
000003d0: 7986 5fbe 3125 c5bd 685b 1dbe 5688 f23d
000003e0: 6670 133e 6369 babd 7fca 253e 3356 123e
000003f0: 4578 8b3e b85d 98bd e3e6 0c3e 77a3 83bd
0.054266375 0.18431433 -0.055891138 0.04785168 -0.09179094 0.044661444 0.14022832 -0.2867831
0.18696158 -0.1125062 0.13144693 -0.14899455 -0.02502517 -0.30381662 0.119660534 -0.14193176
-0.06719206 0.1758598 0.032362625 -0.49650753 -0.12100905 0.13628772 -0.2559435 0.18547228
-0.08977328 0.23617892 -0.00074780814 -0.14664137 0.5251436 -0.09586742 -0.3837095 0.17987846
-0.06317409 0.011448041 0.05875305 0.19095652 -0.07105923 -0.114153475 0.0056677535 0.33783317
-0.35755235 0.23276491 -0.099243686 -0.19847801 -0.34647745 -0.38784012 -0.14489307 -0.017528571
-0.06350036 0.11019632 0.030249678 0.19334395 -0.2937259 0.26640356 -0.11534844 -0.07599496
0.008618728 -0.013083801 -0.021636114 -0.12911315 0.15633285 0.117844395 -0.058617346 -0.11247846
0.20739417 0.24271387 -0.5024199 -0.18536557 -0.46246442 0.1080348 -0.10656429 0.070757575
0.19489542 -0.14883053 0.15343784 0.1642011 0.024950245 -0.21374626 0.22283402 0.036028545
-0.18634678 0.08070703 0.027238877 0.07847283 -0.29457742 0.044884585 -0.1196467 -0.09548205
-0.09794118 0.023982977 0.19153309 -0.3206279 0.017310757 -0.084453516 -0.020502295 0.31939933
0.11344633 0.1576174 -0.15678492 0.053442627 0.020973207 -0.058926314 -0.022851339 -0.057952978
-0.103615694 -0.08015692 -0.099746354 -0.072287336 0.0049990513 0.032716725 -0.14844483 -0.018456126
-0.08285209 -0.124660194 -0.34100017 0.01585005 0.011734207 -0.3523184 0.27669483 -0.07049495
0.07367126 -0.3794264 -0.288496 -0.13133824 0.31844237 0.18577094 -0.18920785 -0.17758891
0.18744713 -0.11611981 0.33611965 0.08580166 -0.27465624 0.110786736 -0.050909746 -0.12940815
-0.021847202 0.09339548 -0.09565538 0.042543575 0.4514826 -0.35193527 0.11015295 -0.34046367
0.16295102 -0.21365358 0.11149894 0.021402912 -0.39372537 0.2843517 0.08311059 0.07902961
-0.3004501 0.1682296 -0.23962294 0.12076516 -0.29154485 0.19285423 0.17884313 -0.14657682
0.22692992 -0.38068023 -0.04670123 0.039799254 -0.020102113 -0.13798147 -0.03357022 0.14125463
0.31934482 0.1054215 -0.17121649 0.18027952 -0.014416856 -0.28833723 0.20820922 -0.038017053
0.35122418 0.11419401 -0.1901637 -0.036027838 -0.02665763 0.0053674504 0.46075198 0.2902076
0.1714162 -0.21981238 0.18711047 -0.040419597 -0.03708273 -0.15679492 -0.1852032 0.26347637
-0.2159904 0.23606469 0.31161812 0.16673397 0.36240208 0.0024544639 -0.074777775 -0.103389785
-0.05951861 0.07167381 -0.029681938 0.067818314 0.037219636 -0.23319688 -0.0077179284 -0.14285909
-0.10983029 0.37575537 -0.02068315 -0.3207219 -0.16535826 -0.43527517 0.057346363 -0.1227695
0.20131128 -0.15431526 -0.16094579 0.31557417 -0.2365731 -0.03313567 0.020098234 0.045706734
-0.15958306 0.046916664 0.22529209 0.2031165 0.033249825 -0.02114533 0.013094146 -0.09925544
-0.14901525 -0.16355027 -0.0072344784 -0.10682068 -0.022231547 -0.28735834 0.15496352 -0.047362935
0.12601215 0.028169326 -0.24421419 0.00034816563 -0.21828641 -0.09626234 -0.153669 0.1184241
0.14398345 -0.09102132 0.16190527 0.14290695 0.27240196 -0.074397504 0.13759951 -0.06427663

fc3.bias f4 [64]
00000000: 3cf1 78bd 9bc4 efbd 4fdc db3e 1b29 ccbb
00000010: 7c3e b33c f316 acbd 44e4 103f 8cdf 4ebe
00000020: 3ac0 b63e 03d5 093f bc49 d1bd 8f78 123f
00000030: c7f1 8539 f564 02be 7a73 6d39 2b91 12be
00000040: 0f42 64be dafc 103e 51cc 26bd fe7e f03e
00000050: 0cd2 80bd f599 153f 0c05 84be b272 fe3e
00000060: 6d2f 2c3d 61d1 96bd ea39 fdbd d186 ed3d
00000070: 58f0 cbbd a7c1 893e f3ee 113f 4f87 04bd
00000080: 60f8 2fbd 685a 93bc 8f8e 20be 394b d9bd
00000090: 67ee 063c 6041 c1bd e817 44bd 6722 6c3d
000000a0: 5d63 c1bd c9cb fd3d 385e 293d 3176 4c3e
000000b0: e22c 963e df6f 073f 4132 fbbd 5fdf 813d
000000c0: 6775 ecbd 6409 df3e c86a f43e 5e95 c9bd
000000d0: a2bd ce3e a0ab 20be bd9f eebd 2aab 89be
000000e0: 21d6 1e3e 6488 3b3c 69fa 94bd 7050 083e
000000f0: 16f1 453e d8d6 ed3e db9e f13d ec36 37bc
-0.060776934 -0.117074214 0.4294152 -0.006230486 0.02188038 -0.08402815 0.56598306 -0.20202464
0.35693532 0.53840655 -0.10219142 0.5721521 0.00025547875 -0.12733825 0.000226451 -0.1431319
-0.22290824 0.14158955 -0.040722195 0.46971887 -0.06290063 0.58438045 -0.257851 0.4969688
0.042037416 -0.073641546 -0.12364562 0.1159798 -0.09957951 0.26905558 0.5700523 -0.032355603
-0.04296148 -0.017987445 -0.15679382 -0.10610051 0.0082355505 -0.094362974 -0.04787436 0.057649996
-0.0944278 0.123923846 0.04134962 0.19966961 0.29331118 0.52905077 -0.122654445 0.06341433
-0.1154583 0.43561852 0.47737718 -0.09842943 0.40379053 -0.1569047 -0.116515614 -0.268884
0.15511371 0.011446092 -0.072743244 0.13311934 0.19330248 0.46452975 0.117978774 -0.011182528

fc4.weight f4 [4, 64]
00000000: 35cd a23e 7678 d7bc 0b78 363e fdf9 3b3e
00000010: 4840 9d3e 75b5 0e3d 42d3 8c3e 998b 753d
00000020: 8c83 3e3e 8fdb 743e 3652 4a3c 9a85 603e
00000030: ec6e 24bf 94e7 cb3b 85e6 9b3e 05a2 2abd
00000040: 7cee 12be 4ec5 153e f387 92be fbb3 443e
00000050: 4747 653d 269c 643e 527e 84be 1d8c 143e
00000060: 76e4 483d 7144 6dbd e194 32be 6100 173d
00000070: 468d a4bd d5e9 243e 3f98 4a3e cc64 b9be
00000080: 7811 153e ed17 cabd e2fc 5abe bf97 b83c
00000090: 6c93 863e a748 cd3c 9330 71bc c2f9 6d3e
000000a0: a39f d9bd 9dc8 793d a138 953d 0dc8 63bc
000000b0: d532 883e 672f 603e 3fbe a1be 75e9 f13e
000000c0: 3f3c f73d b1a5 423e 52e4 0f3e a026 cc3d
000000d0: d81f 123e 48d4 79bc 5170 f0bd 6550 36be
000000e0: a264 fb3d ec1d 7c3e 77ce febb fc25 cf3d
000000f0: 4a53 a43e 1c0b 2e3e 8498 50bf 37ab 14be
00000100: 46d3 d63e c50a a4bd 7dc0 133d 276f 67be
00000110: a31c ae3e a97e 853e 0a09 ec3d 60d8 3e3e
00000120: 2b9e d53d 20fa 663e e22c f23b 6bf9 033e
00000130: 8db6 e33b 8786 02bc d621 26bf e70e bfbc
00000140: 70af 65be 2ee3 bc3d 5939 b53d 2a1f 853e
00000150: 4682 7cbc a38c 923e 19e2 a6bd aca9 673e
00000160: 7c09 a63d 1180 dbbd 1d53 6cbe d1db 70bc
00000170: a8d5 84bc ee1f 953e 7cae 4c3e 4653 32be
00000180: 8cf4 213e b97b d93d f816 1dbe bf4c 583c
00000190: 696f bd3e 66c2 e0bd a9c2 cebe d106 503e
000001a0: 5955 bbbd dafb 5d3e d8c9 f93d fe61 fc3d
000001b0: c7f3 2e3e 079c 1b3e d126 9ebe 5640 443d
000001c0: 1a93 593e a0d0 843e 5d0b 6f3e 1f32 f4bc
000001d0: e35d 213e dfd1 35be 0b7d ebbd 7112 85bd
000001e0: af22 353e ef3b 333e f66e 363d befc 693e
000001f0: ec24 803e e07c 1f3e 1a86 613d 9b6c 1dbe
00000200: b3b6 6a3e 0154 05bf 621a 1d3e 1378 493c
00000210: 71cb 1f3e 34be 18bf d3c3 853e 3a05 2cbe
00000220: 00b2 4d3e 5890 113e 34a3 dbbb 40c1 573e
00000230: df48 a7be cc3a 6bbe bcd5 e63e ee8c cebe
00000240: 4f9a 1f3d 29ba 6d3e 5e98 8e3e 7dca 6f3e
00000250: 85eb c83c dc8d 773e 8ae0 9ebd ed59 4c3e
00000260: cec1 793e 9917 9ebc 6ab9 083e d439 1cbe
00000270: 8ccc 34bc 5cc7 bdbc 5154 803e dd1e 63bd
00000280: c1d9 e03e 0eb2 863e 8aa3 793e c0ce 08bd
00000290: b710 073e 9acc 1d3d cd41 04bf 19f3 d93d
000002a0: 797b 90bd 83ac 443e a5cc d93e 9c69 5f3e
000002b0: 54f6 083e 4965 573e 5b18 82be 04b9 4b3e
000002c0: 7493 173f 75c7 2f3d 1a9a 553e eeac 0e3d
000002d0: 5ff4 323e dabe cbbe a5e6 fe3d 8d78 093e
000002e0: 4497 c5bc 9e4e f93e 6d9c c0be 0496 f93c
000002f0: cee2 973d 678c e03d 1000 583a a0c4 9d3e
00000300: f15d 763e f099 bdbc 8fb4 563e 15b2 f6be
00000310: 8b09 da3e fe9b 6abc 233b 943e 7606 8dbe
00000320: e208 183d 8d6c ec3d 52da a93d 1c39 843e
00000330: acd4 a0be 3229 b1be 0094 99be f565 023e
00000340: 23d5 383e 5aaf 593e cbb4 063e fd83 a23d
00000350: b611 843c c291 5f3e b4d3 bbbd 1892 7a3e
00000360: bee8 5f3e 7be2 853d d30f 91bd 241c b33d
00000370: 2565 593e 9a43 873d 4d79 423e 0faf 1b3e
00000380: 595c 09bf 2368 933e 660a e4be a801 a7bd
00000390: c1d6 1dbe eb38 6fbd 80f4 b6be 3067 023f
000003a0: fe01 ddbd cef3 2fbd 74cb 03be 9bfa 043e
000003b0: 2deb 253e 3d46 403e a0e9 87be b5db b03d
000003c0: a872 9d3e f44b 513e 85d2 283e 021e 89bd
000003d0: 32cd 8b3e b8c6 8dbe 246c 24bf 2e23 c7be
000003e0: 4841 773e d5c9 d23e 4de6 0d3f 1895 5a3e
000003f0: be15 b4bc 4766 5c3e ba7a 58be 3bd0 af3e
0.31797186 -0.026302557 0.1781923 0.18357082 0.30713105 0.03484102 0.27504927 0.059947584
0.18604869 0.2391188 0.012348702 0.21925965 -0.64231753 0.0062226746 0.3044931 -0.04165842
-0.14348787 0.14626047 -0.28619346 0.19209282 0.05597618 0.22325191 -0.25877625 0.14506574
0.049046002 -0.0579266 -0.17439605 0.036865596 -0.08034758 0.16104825 0.1978464 -0.36209714
0.14557445 -0.09867845 -0.2138553 0.022533296 0.2628435 0.025059057 -0.014721054 0.23239806
-0.106261514 0.060982335 0.07286192 -0.013902676 0.26601282 0.21893083 -0.3159046 0.47248426
0.12072038 0.19008519 0.14051941 0.09968305 0.1426996 -0.015248366 -0.11740173 -0.17804106
0.122750536 0.2462079 -0.0077760774 0.10114667 0.32094795 0.16996425 -0.8148272 -0.14518438
0.41958064 -0.080098666 0.036072243 -0.22600995 0.34006223 0.26073197 0.115251616 0.18637228
0.10430559 0.22556353 0.0073906044 0.12888114 0.006949252 -0.007966644 -0.6489538 -0.023322536
-0.22430205 0.092230186 0.08848829 0.2600034 -0.015411919 0.28622922 -0.081485935 0.22623318
0.08107278 -0.10717786 -0.2307858 -0.014700846 -0.01621516 0.29125923 0.19988436 -0.17414579
0.15815943 0.10619301 -0.15340793 0.013201891 0.36999062 -0.109745786 -0.4038289 0.203151
-0.09147138 0.21678105 0.12196702 0.12323378 0.17085181 0.15196238 -0.3088899 0.047912918
0.21247521 0.25940418 0.23344178 -0.029809056 0.15758471 -0.1775584 -0.114984594 -0.06497658
0.17689012 0.17503332 0.044539414 0.2285032 0.2502817 0.1557498 0.05505953 -0.15373461
0.22921257 -0.52081305 0.15342095 0.012296694 0.1560495 -0.59665227 0.26125965 -0.16798869
0.20087433 0.14215219 -0.006702805 0.21069813 -0.32672784 -0.22971648 0.4508494 -0.40341896
0.03896552 0.23215546 0.27850622 0.23417087 0.024526367 0.24175209 -0.07757671 0.19956179
0.24390337 -0.019298362 0.1335198 -0.15256435 -0.011035096 -0.023166351 0.25064328 -0.055449355
0.43916133 0.2630772 0.24378791 -0.033400297 0.1318997 0.0385252 -0.51662904 0.1064207
-0.070548005 0.19206433 0.42538944 0.2181763 0.13375217 0.21034731 -0.25409207 0.19894797
0.5920937 0.042914826 0.20859566 0.034832887 0.17476033 -0.39794046 0.12446336 0.13424893
-0.02411998 0.48692793 -0.37619343 0.03046704 0.074163064 0.109642796 0.00082397554 0.30814075
0.24059273 -0.023144692 0.20967315 -0.4818274 0.42585406 -0.014319418 0.28951368 -0.27543992
0.037117846 0.11544142 0.082935944 0.2582482 -0.31412256 -0.34601742 -0.29995728 0.12734206
0.18050055 0.21258298 0.13154905 0.07935331 0.016121726 0.21832946 -0.091712385 0.24469793
0.21866128 0.06537338 -0.07083096 0.08745602 0.2122999 0.06604691 0.18991585 0.15203498
-0.53656536 0.28790388 -0.44539183 -0.08154613 -0.15413953 -0.05840389 -0.35733414 0.509387
-0.107913956 -0.04295712 -0.1287058 0.12986223 0.16202994 0.18776794 -0.2654543 0.08635656
0.30751538 0.2043913 0.16486557 -0.06695177 0.2730499 -0.27690673 -0.6422751 -0.38894027
0.24145997 0.4116961 0.55429536 0.21345937 -0.021983024 0.2152339 -0.21140566 0.34338555

fc4.bias f4 [4]
00000000: 66db a63e 50f3 7a3e d3cf aa3e 2e97 863e
0.32589263 0.24506879 0.33361682 0.26287216
