checkpoint.pth (torch, 80047 bytes, 8 tensors)

fc1.weight f4 [64, 37]
0.021248884 0.011870841 -0.18148415 0.057955544 -0.19781639 0.16648184 -0.39671496 0.20533401
0.18249713 0.093665145 -0.019352388 -0.16428879 -0.061562967 -0.1178482 -0.25891864 -0.02840637
0.18645151 0.1969201 -0.5003775 0.027981186 0.09540016 0.22643425 -0.04371537 -0.10698341
-0.14533493 0.012980705 0.2745638 -0.02598108 -0.37041324 -0.05105072 -0.1002096 0.036822744
-0.049973454 0.06395029 0.054257516 -0.14610979 0.011117759 0.17299189 0.05022439 0.04324912
-0.071241684 -0.5315641 -0.051702317 -0.094387315 -0.01731192 -0.30303422 -0.14007893 0.061985563
-0.09517358 0.07817313 0.040049125 0.1984737 -0.11069291 0.074079625 0.108993106 0.0067769825
-0.044159874 -0.067345366 -0.17915434 -0.06282817 -0.09806283 0.32937017 -0.08312865 0.011029837
0.030964026 0.13102253 0.12154914 0.114500575 0.11403392 0.080928296 -0.41340607 -0.2549071
0.0038861132 0.050906092 0.4030837 -0.17881452 -0.015423963 -0.19212914 -0.11904499 -0.60024333
-0.3197408 0.32134962 -0.08779434 -0.3167533 0.24236597 -0.21396045 -0.10698276 -0.19010848
-0.29081023 -0.012514202 -0.16625899 0.34859207 -0.33683106 0.051710162 -0.23609406 -0.19269721
0.20660822 -0.049192496 -0.35521543 -0.03655775 0.26408306 -0.07779351 -0.07972621 -0.11689467
-0.39662808 0.11810235 0.014835139 -0.6836486 0.14892589 -0.0042540357 -0.057607356 -0.07758763
0.008414716 0.18730384 0.18290076 0.101902135 -0.0015156696 -0.23403507 0.11223037 0.31947294
0.41406193 0.055415407 -0.06897171 0.1584359 -0.021762291 -0.065396905 -0.0313184 0.063527636
-0.017322317 -0.26139304 -0.3435417 0.07365577 0.108960554 0.0051806234 0.04396283 -0.16380744
0.075134665 0.010467829 0.017963618 0.15319808 0.1379489 0.25173238 0.104934536 0.18617237
-0.51154137 -0.52037793 -0.007033567 -6.5897686e-05 -0.055280134 -0.08190987 -0.1167166 -0.10186524
-0.095818624 0.3753654 -0.53897804 -0.32202548 -0.36512917 -2.084734 0.03700448 0.051191688
-0.010238603 -0.08631866 -0.025426272 -0.086504236 -0.018737582 -0.032412235 -0.012152819 0.09915804
-0.07337197 -0.030231368 0.07680727 0.048453797 0.11732676 0.11541812 0.042846117 0.052790947
0.02393011 -0.22870839 0.060620815 0.031363644 0.1919762 0.2122349 0.23787735 0.015444945
0.012953437 0.079557754 -0.07894176 0.14059715 -0.31589547 0.23463729 0.17220199 0.4098795
-0.6834962 0.027547209 -0.59181374 -0.039993227 -0.19957021 0.040465657 0.04916706 -0.057884276
0.12021088 0.102950625 -0.12757121 -0.278571 -0.3578114 0.07258819 0.18356872 0.15128483
-0.07358337 0.05983782 -0.17402995 -0.026109446 0.12416092 0.1112602 0.09359501 0.1873065
-0.49803117 -0.047120355 -0.080946356 -0.7835415 0.035329834 -0.0008354496 0.012355943 0.07719218
0.037487645 -0.034123257 -0.35897326 -0.06927531 0.013246396 -0.031764694 0.1497986 0.31877044
-0.047056664 0.15191703 0.108865745 0.0667104 0.06581031 -0.16811204 -0.0032666104 0.08659819
0.31536427 0.37734646 0.048036303 -0.16952851 0.14206648 0.09839978 0.5926288 -0.005063508
-0.0478624 -0.056555457 0.043162353 -0.08463106 0.2248322 0.07868006 -0.04948645 -0.26724136
00000000: 2412 ae3c ea7d 423c fbd6 39be cb62 6d3d
00000010: 6190 4abe 377a 2a3e 391e cbbe 1443 523e
00000020: 87e0 3a3e 83d3 bf3d e688 9ebc 523b 28be
00000030: 7329 7cbd 665a f1bd fc90 84be 7ab4 e8bc
00000040: 25ed 3e3e 6ca5 493e bd18 00bf cd38 e53c
00000050: 2961 c33d 61de 673e e30e 33bd 1e1a dbbd
00000060: aed2 14be 06ad 543c a093 8c3e 46d6 d4bc
00000070: cea6 bdbe 8f1a 51bd b13a cdbd 72d3 163d
00000080: f7b0 4cbd 5ff8 823d 213d 5e3d ce9d 15be
00000090: 4327 363c c924 313e 17b8 4d3d fd25 313d
000000a0: 29e7 91bd 9614 08bf cfc5 53bd 234e c1bd
000000b0: bad1 8dbc 4d27 9bbe da70 0fbe 93e4 7d3d
000000c0: 5eea c2bd 3c19 a03d 8d0a 243d b13c 4b3e
000000d0: f7b2 e2bd 0fb7 973d c737 df3d 7311 de3b
000000e0: fce0 34bd 5eec 89bd 3c74 37be 0eac 80bd
000000f0: 2ad5 c8bd 35a3 a83e 5b3f aabd 7db6 343c
00000100: 45a8 fd3c c52a 063e c1ee f83d 477f ea3d
00000110: 9e8a e93d bcbd a53d f6a9 d3be 2f83 82be
00000120: 29ae 7e3b e882 503d fd60 ce3e 271b 37be
00000130: cab4 7cbc 80bd 44be dccd f3bd 8ca9 19bf
00000140: 11b5 a3be f087 a43e 85cd b3bd 7d2d a2be
00000150: c92e 783e 7318 5bbe c719 dbbd ccab 42be
00000160: 14e5 94be 5e08 4dbc cc3f 2abe a97a b23e
00000170: 1f75 acbe 09ce 533d a4c2 71be 6b52 45be
00000180: 1b91 533e 127e 49bd ccde b5be 94bd 15bd
00000190: e535 873e 3452 9fbd 7f47 a3bd 7966 efbd
000001a0: d612 cbbe a5df f13d 150f 733c 9803 2fbf
000001b0: 0780 183e 7065 8bbb b1f5 6bbd 43e6 9ebd
000001c0: e1dd 093c 94cc 3f3e 564a 3b3e 11b2 d03d
000001d0: 6fa9 c6ba e4a6 6fbe 09d9 e53d f591 a33e
000001e0: edff d33e 44fb 623d 0a41 8dbd 053d 223e
000001f0: d546 b2bc d0ee 85bd b947 00bd c71a 823d
00000200: 88e7 8dbc 4fd5 85be b3e4 afbe d6d8 963d
00000210: b626 df3d 38c2 a93b 5e12 343d 23bd 27be
00000220: 34e0 993d 4281 2b3c 7028 933c f5df 1c3e
00000230: 7a42 0d3e 11e3 803e ebe7 d63d f8a3 3e3e
00000240: 60f4 02bf 7d37 05bf d679 e6bb 8d32 8ab8
00000250: 6c6d 62bd 5dc0 a7bd 1d09 efbd b99e d0bd
00000260: 8e3c c4bd e52f c03e 77fa 09bf 86e0 a4be
00000270: 36f2 babe 486c 05c0 0292 173d 60ae 513d
00000280: d0bf 27bc d6c7 b0bd c24a d0bc 2229 b1bd
00000290: 8f7f 99bc b1c2 04bd 9e1c 47bc 5f13 cb3d
000002a0: 0b44 96bd c6a7 f7bc 214d 9d3d 7d77 463d
000002b0: 0349 f03d 5660 ec3d 697f 2f3d 523b 583d
000002c0: 1409 c43c 8832 6abe 884d 783d 2a77 003d
000002d0: 6995 443e 1b54 593e 1f96 733e cb0c 7d3c
000002e0: a73a 543c 2def a23d 38ac a1bd b3f8 0f3e
000002f0: 0dbd a1be c244 703e b855 303e badb d13e
00000300: 9bf9 2ebf afaa e13c 1b81 17bf f0cf 23bd
00000310: 225c 4cbe 51bf 253d 6663 493d 1018 6dbd
00000320: 1f31 f63d c7d7 d23d 07a2 02be dca0 8ebe
00000330: 0e33 b7be 1ea9 943d 70f9 3b3e 69ea 1a3e
00000340: e1b2 96bd 8018 753d e834 32be 7ae3 d5bc
00000350: 1548 fe3d 63dc e33d beae bf3d 46cd 3f3e
00000360: f1fd febe 4601 41bd 34c7 a5bd 2d96 48bf
00000370: 04b6 103d 1302 5bba 9570 4a3c ef16 9e3d
00000380: a58c 193d d4c4 0bbd 58cb b7be 37e0 8dbd
00000390: 6907 593c b21b 02bd ce64 193e e135 a33e
000003a0: 7dbe 40bd 2390 1b3e 01f5 de3d 769f 883d
000003b0: 8ec7 863d 9025 2cbe a114 56bb 645a b13d
000003c0: 6d77 a13e 8e33 c13e b7c1 443d e298 2dbe
000003d0: e079 113e d385 c93d 85b6 173f c9eb a5bb
000003e0: 5d0b 44bd b2a6 67bd 02cb 303d 0d53 adbd
000003f0: 6a3a 663e 0323 a13d 4eb2 4abd dcd3 88be

fc1.bias f4 [64]
0.12646922 -0.054689817 -0.16383743 -0.024878034 0.24706748 -0.004011888 -0.047879137 0.05529054
0.07948092 -0.1282495 0.19400269 0.10765067 0.17273857 0.080797166 -0.05781319 -0.043762878
-0.027418347 0.0629845 -0.026007384 -0.15547849 -0.16481902 -0.0016518267 0.044063374 -0.061560787
-0.04784052 0.109244905 -0.049224395 -0.2043237 0.16403443 0.06582937 -0.07329353 -0.113707386
0.05496387 -0.008074739 -0.15897661 -0.009821608 -0.0036584237 0.038514357 -0.081258945 -0.13777527
-0.16083102 -0.0661322 -0.10716176 0.16960832 -0.075319365 -0.07610307 0.010591372 -0.12587972
-0.06153307 0.16008894 -0.13758066 0.25350478 0.05233343 -0.08739748 -0.124201946 -0.049550824
0.06381485 0.024297664 0.01196992 -0.05462456 0.08660628 0.08628995 0.03679587 0.06987572
00000000: 2681 013e 6e02 60bd 00c5 27be 05cd cbbc
00000010: 42ff 7c3e 2876 83bb ea1c 44bd 5578 623d
00000020: e5c6 a23d d653 03be a4a8 463e f477 dc3d
00000030: 61e2 303e fc78 a53d 86cd 6cbd b440 33bd
00000040: 719c e0bc 04fe 803d 700d d5bc c135 1fbe
00000050: 51c6 28be 1b82 d8ba cc7b 343d 2a27 7cbd
00000060: 6cf4 43bd cbbb df3d 859f 49bd 3b3a 51be
00000070: a4f8 273e 8cd1 863d eb1a 96bd 6bdf e8bd
00000080: cc21 613d e94b 04bc c4ca 22be cfea 20bc
00000090: 2ac2 6fbb 3bc1 1d3d 176b a6bd f614 0dbe
000000a0: e3b0 24be 5270 87bd a077 dbbd cead 2d3e
000000b0: 0a41 9abd eddb 9bbd 6f87 2d3c 9de6 00be
000000c0: 1a0a 7cbd 5bee 233e f2e1 0cbe 61cb 813e
000000d0: 945b 563d 73fd b2bd 975d febd cef5 4abd
000000e0: 5cb1 823d e50b c73c 7c1d 443c 01be 5fbd
000000f0: a25e b13d c9b8 b03d 44b7 163d 001b 8f3d

fc2.weight f4 [128, 64]
0.05797467 -0.07196238 -0.061238818 -0.17300642 0.21886972 -0.14935842 -0.14002836 0.028818075
-0.30321747 0.14698032 -0.11902882 -0.08202179 -0.09502727 0.116089284 -0.16744442 0.2145105
-0.21353096 0.16202116 0.18786561 0.16253749 -0.14132364 -0.29580784 0.022303862 0.11381393
-0.2844286 -0.07199572 0.27814546 -0.18875237 0.020356733 0.25670832 0.17637789 0.00018993474
-0.50149006 -0.17587897 0.15457687 0.15074942 0.126758 0.23169164 0.11898535 -0.45516124
-0.035175223 -0.16552864 0.3047653 -0.19408347 0.14584285 0.04082792 -0.09244605 -0.015683826
-0.070798494 0.051937144 0.10546956 0.16599262 0.07193988 -0.27133507 -0.010453703 -0.13387264
-0.45745596 0.057038844 -0.28438604 0.06486304 0.04852515 0.09513155 -0.03816116 -0.2096299
0.10041573 -0.11975813 0.1898935 0.01219725 0.20076594 -0.39643458 -0.53766376 0.36894205
-0.04288067 0.019097812 0.27471685 0.112693176 -0.053065166 0.05959947 -0.051029023 0.045107108
-0.033132657 0.17302804 -0.023664787 -0.08121626 0.11377279 -0.19176988 -0.28638244 -0.120504044
-0.22802788 -0.033139605 0.121654205 -0.2699962 -0.10897777 -0.112164274 -0.14110047 -0.51760685
0.124582544 0.2702717 0.24151734 -0.34026468 0.32852706 -0.14274678 0.36291453 -0.55085385
-0.055199616 0.012733153 0.12249048 -0.12125508 -0.16580886 0.045523375 -0.08874907 0.17387505
-0.104756095 -0.34401187 -0.047871314 0.054325152 -0.103106745 -0.23044758 -0.08579346 -0.18460488
0.14399204 -0.15987436 -0.2195677 0.19106397 0.013305594 -0.07863136 0.08679713 -0.042889696
-0.31589553 -0.10119017 0.06736869 -0.48883462 -0.09453352 0.09088682 -0.39568958 0.028527578
0.0880003 -0.2013897 0.07591595 -0.088603236 0.076901086 0.079306394 -0.1482198 0.018725533
-0.34814715 0.08255663 -0.002616314 -0.009067535 -0.17577466 -0.09687667 -0.34356186 -0.18939741
-0.24377298 -0.24139352 0.061852258 0.008218217 -0.08643458 -0.024651868 -0.066824205 -0.048381023
-0.3258356 -0.12311656 -0.1298112 -0.3791692 0.07055041 0.03125707 0.13905308 -0.085301064
0.0552003 -0.17621402 -0.16890173 -0.044377826 -0.13890362 -0.36245555 0.017522937 -0.24398568
-0.005376843 -0.13971716 -0.08693617 -0.09811159 -0.22492215 0.10935031 -0.04139257 -0.14950995
-0.14774711 -0.094834834 0.14668149 0.06586631 -0.041979745 0.008456809 0.055870835 -0.13272077
-0.10599176 -0.16799515 0.0047061997 -0.105978385 0.18475886 -0.033156145 -0.128836 0.0635193
-0.24653824 0.09278877 -0.12885846 0.10353322 -0.042350147 0.01902129 -0.0081811305 -0.11428071
-0.06698038 -0.06737125 -0.08199642 0.14314744 -0.014347851 0.1911569 0.09141011 0.07161606
0.05624626 -0.022905901 0.1870529 -0.13416463 -0.0008925196 -0.14378898 -0.14857571 -0.15014862
-0.07507116 -0.026707683 0.030158201 0.064898156 0.07352837 0.26883593 -0.033576112 -0.06148672
-0.045024134 0.0678555 0.11344582 0.030350043 -0.15668659 0.09438657 -0.032609843 0.035503253
0.034401324 -0.093308896 -0.07701782 0.36647752 0.19062988 0.082179345 -0.13890602 0.13829862
-0.042624857 -0.16811897 -0.16212514 0.09165723 -0.04211169 0.15274273 0.061868757 0.10121687
00000000: d976 6d3d 0361 93bd 8ed5 7abd 9828 31be
00000010: 621f 603e 6af1 18be 9863 0fbe e213 ec3c
00000020: 523f 9bbe 0282 163e 62c5 f3bd 0afb a7bd
00000030: a89d c2bd 38c0 ed3d 8d76 2bbe a4a8 5b3e
00000040: dca7 5abe e0e8 253e d85f 403e 3a70 263e
00000050: 25b7 10be 2074 97be 97b6 b63c 4717 e93d
00000060: a0a0 91be 7e72 93bd 1569 8e3e 4d48 41be
00000070: 2ac3 a63c 466f 833e 689c 343e 3829 4739
00000080: a761 00bf 9e19 34be 6649 1e3e 0e5e 1a3e
00000090: d9cc 013e 9340 6d3e 97ae f33d e50a e9be
000000a0: e513 10bd 5780 29be 330a 9c3e d1bd 46be
000000b0: d457 153e 2d3b 273d 5b54 bdbd 5e7b 80bc
000000c0: cdfe 90bd 0bbc 543d 6d00 d83d f8f9 293e
000000d0: 3755 933d 6eec 8abe 0246 2bbc e915 09be
000000e0: ab37 eabe 90a1 693d 0c9b 91be ead6 843d
000000f0: 4fc2 463d 55d4 c23d e04e 1cbd 38a9 56be
00000100: c3a6 cd3d c043 f5bd 7173 423e f9d6 473c
00000110: 9695 4d3e 79f9 cabe 55a4 09bf f9e5 bc3e
00000120: a4a3 2fbd 0473 9c3c b0a7 8c3e aecb e63d
00000130: dc5a 59bd 931e 743d cf03 51bd 3bc2 383d
00000140: 1cb6 07bd 432e 313e a8dc c1bc b654 a6bd
00000150: b501 e93d 535f 44be b8a0 92be d3ca f6bd
00000160: 2480 69be 65bd 07bd d725 f93d f13c 8abe
00000170: bd2f dfbd 62b6 e5bd a47c 10be e281 04bf
00000180: 2225 ff3d 0d61 8a3e 5250 773e 2c37 aebe
00000190: b334 a83e 362c 12be efcf b93e c204 0dbf
000001a0: fe18 62bd b79e 503c 4adc fa3d 9554 f8bd
000001b0: ccc9 29be b876 3a3d 13c2 b5bd 4d0c 323e
000001c0: 5d8a d6bd 5322 b0be b614 44bd 0d84 5e3d
000001d0: a129 d3bd 73fa 6bbe 7bb4 afbd 1009 3dbe
000001e0: a672 133e 1bb6 23be 5bd6 60be 46a6 433e
000001f0: b5ff 593c 7a09 a1bd b2c2 b13d 1bad 2fbd
00000200: 0fbd a1be cb3c cfbd 99f8 893d 8848 fabe
00000210: ca9a c1bd de22 ba3d d397 cabe abb2 e93c
00000220: 8039 b43d 1a39 4ebe d279 9b3d 9d75 b5bd
00000230: 517e 9d3d 646b a23d eec6 17be 4a66 993c
00000240: 5840 b2be 7313 a93d 7776 2bbb 0090 14bc
00000250: 46fe 33be 4767 c6bd 57e7 afbe 65f1 41be
00000260: a09f 79be dd2f 77be cb58 7d3d b3a5 063c
00000270: 9d04 b1bd b7f2 c9bc 21db 88bd 2e2b 46bd
00000280: ecd3 a6be 8924 fcbd 3aed 04be 7722 c2be
00000290: bc7c 903d 6a07 003d ee63 0e3e 53b2 aebd
000002a0: b619 623d 7371 34be 93f4 2cbe 86c5 35bd
000002b0: c03c 0ebe c693 b9be 438c 8f3c 62d7 79be
000002c0: 3a30 b0bb 0412 0fbe 970b b2bd bbee c8bd
000002d0: fe51 66be 0ef3 df3d 418b 29bd 2319 19be
000002e0: 054b 17be c438 c2bd ac33 163e eae4 863d
000002f0: f4f2 2bbd 6e8e 0a3c d1d8 643d f4e7 07be
00000300: 3512 d9bd ec06 2cbe 7736 9a3b 320b d9bd
00000310: 6d31 3d3e bdce 07bd 96ed 03be 6816 823d
00000320: 8574 7cbe 0a08 be3d 79f3 03be 3a09 d43d
00000330: 5977 2dbd 89d2 9b3c 260a 06bc 010c eabd
00000340: 022d 89bd f0f9 89bd bded a7bd 3e95 123e
00000350: 4013 6bbc a2be 433e 3935 bb3d 71ab 923d
00000360: 7a62 663d 28a5 bbbc cc8a 3f3e 7462 09be
00000370: faf7 69ba 6b3d 13be 3b24 18be 8fc0 19be
00000380: e9be 99bd 12ca dabc 550e f73c 53e9 843d
00000390: 0b96 963d dda4 893e 1b87 09bd 80d9 7bbd
000003a0: 3a6b 38bd d3f7 8a3d 4856 e83d a7a0 f83c
000003b0: 7372 20be bf4d c13d e691 05bd dc6b 113d
000003c0: 67e8 0c3d bc18 bfbd 85bb 9dbd f1a2 bb3e
000003d0: 7b34 433e a54d a83d 613d 0ebe 279e 0d3e
000003e0: 6797 2ebd 6127 2cbe 2204 26be c9b6 bb3d
000003f0: 4f7d 2cbd 9768 1c3e 186a 7d3d ca4a cf3d

fc2.bias f4 [128]
-0.012774798 -0.044583667 -0.021477867 0.012763071 0.111552514 0.06623271 -0.022883123 0.013265152
-0.02840347 0.3215602 0.17210716 -0.09179556 -0.022516131 -0.173009 -0.045931675 -0.113952205
0.032683488 0.020698372 0.1117086 -0.12289669 0.047017742 0.07606638 -0.07846983 -0.07162117
0.11640821 -0.04540478 0.052197516 0.00547469 -0.010177735 0.12759714 0.0031440356 -0.052768674
-0.15913363 0.070740744 -0.046747837 0.1874688 -0.12051981 -0.014068477 -0.12956259 -0.09032379
0.10274986 -0.049508147 0.18222177 0.07177946 -0.12729383 0.04028587 -0.074290514 0.011837754
-0.12971088 -0.16429268 0.33238685 -0.1363099 0.12206155 -0.043530717 0.06627044 0.07683629
-0.09161924 -0.12034486 0.07856443 0.008735486 -0.047683667 0.0090151215 0.04412091 0.12927933
-0.13238049 0.041579846 -0.03249932 -0.15184525 -0.06608544 0.06216619 -0.08431797 0.15004718
-0.03083675 0.2175363 0.0015742659 -0.05813514 0.3935005 -0.0961852 -0.020811176 -0.046175484
-0.16939843 0.0984808 0.010535411 -0.05423614 0.06789422 0.047311325 -0.015422656 0.15831077
-0.05671932 -0.04263793 -0.030575762 0.035355717 0.11458879 -0.018663151 -0.20189826 -0.055273697
-0.09109936 0.06510411 0.26251 -0.13914776 -0.20079538 0.1285481 -0.004389837 -0.1107163
-0.076467976 0.14282213 0.32981253 -0.064311184 0.10986334 -0.07658768 -0.026110465 -0.16449296
-0.16311386 0.05297095 0.13127209 0.040714942 -0.16296178 0.025031894 0.066559955 0.038352974
-0.0626455 -0.077320956 0.17226034 -0.10809196 0.0099416645 -0.123778336 -0.09401769 0.04762169
00000000: 634d 51bc 5d9d 36bd 5af2 afbc 331c 513c
00000010: a575 e43d 04a5 873d 6375 bbbc 1556 593c
00000020: 65ae e8bc 8aa3 a43e dc3c 303e 50ff bbbd
00000030: c073 b8bc 4529 31be da22 3cbd c65f e9bd
00000040: 1fdf 053d a28f a93c 7ac7 e43d 43b1 fbbd
00000050: ad95 403d b1c8 9b3d cab4 a0bd 1fae 92bd
00000060: 6d67 ee3d 5dfa 39bd 10cd 553d 0765 b33b
00000070: 84c0 26bc d3a8 023e 2a0c 4e3b f723 58bd
00000080: edf3 22be 86e0 903d a97a 3fbd d2f7 3f3e
00000090: 17d3 f6bd 787f 66bc 0eac 04be aefb b8bd
000000a0: 856e d23d 0ec9 4abd 5898 3a3e 1c01 933d
000000b0: 5059 02be cc02 253d a025 98bd 24f3 413c
000000c0: eed2 04be 573c 28be 9c2e aa3e d394 0bbe
000000d0: 68fb f93d 444d 32bd ccb8 873d 585c 9d3d
000000e0: dea2 bbbd 5e77 f6bd 63e6 a03d 491f 0f3c
000000f0: f34f 43bd 29b4 133c 21b8 343d cd61 043e
00000100: c08e 07be a14f 2a3d 021e 05bd 527d 1bbe
00000110: ce57 87bd faa1 7e3d e6ae acbd f8a5 193e
00000120: 5a9d fcbc d6c1 5e3e 9957 ce3a 1d1f 6ebd
00000130: e678 c93e bffc c4bd 337c aabc 8122 3dbd
00000140: c876 2dbe 4db0 c93d b79c 2c3c b726 5ebd
00000150: 200c 8b3d 85c9 413d 4faf 7cbc 381c 223e
00000160: 8552 68bd 1ca5 2ebd 057a fabc 28d1 103d
00000170: 87ad ea3d 77e3 98bc 6bbe 4ebe ac66 62bd
00000180: 4d92 babd 4e55 853d b667 863e c07c 0ebe
00000190: 4e9d 4dbe 1da2 033e 9fd8 8fbb 3abf e2bd
000001a0: 3e9b 9cbd f73f 123e 30dd a83e 95b5 83bd
000001b0: 0800 e13d 00da 9cbd 9de5 d5bc d870 28be
000001c0: 5207 27be 11f8 583d 316c 063e b6c4 263d
000001d0: 74df 26be b00f cd3c 9650 883d 0218 1d3d
000001e0: 494c 80bd 735a 9ebd 0465 303e 515f ddbd
000001f0: 5de2 223c 7f7f fdbd 598c c0bd f60e 433d

fc3.weight f4 [64, 128]
0.10452028 0.042410616 -0.036898647 -0.044977836 -0.09283944 0.05461412 0.17434855 -0.2899506
0.17625222 -0.020919627 -0.27762026 0.3160063 0.5268354 -0.124557346 -0.13155456 0.20460947
-0.07167211 -0.117937945 -0.16468598 -0.105282724 0.06938269 -0.12185949 0.08759177 0.13396463
0.345242 0.20189457 -0.00076855824 0.028599873 0.10648088 0.18179725 -0.19879426 0.173777
0.25775257 0.1105257 0.12657137 -0.23405568 0.025614569 -0.21038231 0.0056677535 0.09716201
-0.010499086 0.13852666 -0.37669784 -0.2511587 -0.2769464 -0.14135262 -0.2188948 -0.027786544
-0.21090132 0.037951052 -0.019236516 -0.09440791 0.112578385 -0.052388325 -0.015878491 -0.20473658
-0.032150354 0.010241346 0.046258442 -0.19759896 -0.09182426 0.17060822 0.10426929 -0.076018125
-0.046987865 -0.07910826 -0.2525267 0.12736565 -0.10394158 0.2317763 0.19647197 0.16748707
-0.072502695 0.034700096 0.064467736 0.3108516 -0.33148068 0.14931765 0.3397059 0.6983343
0.20485112 -0.04719577 0.07934709 -0.14532769 0.053647302 -0.24531446 -0.08314316 -0.14981377
0.024685118 -0.16677386 -0.27495775 -0.0403657 -0.059685834 -0.20680225 -0.046177167 -0.12963179
-0.028999958 -0.035584696 0.08605906 0.015814323 -0.18209742 0.02773056 0.040805884 -0.18159759
-0.10819946 0.3393523 -0.01674392 0.041103285 0.036173377 -0.054443765 0.046489112 0.010228911
0.3759253 0.0018498885 -0.37794238 0.21390763 0.4907565 0.0873408 0.26272002 -0.09482157
0.09373842 -0.09512435 0.13938357 0.009175846 0.067503445 0.27987123 -0.13775714 0.033794988
-0.5915545 0.18601811 0.22173083 -0.03557219 -0.36047032 0.03237445 0.21691097 -0.1646346
-0.21588816 -0.040853772 -0.039467845 0.085257 0.41607848 -0.34539947 -0.13915935 -0.1716541
-0.33335054 -0.05161727 0.250852 -0.030954612 0.12080921 -0.28231755 -0.23948719 -0.28479677
-0.052721795 0.0028639715 -0.27521527 0.1462527 -0.2706163 -0.21080424 -0.19573323 -0.09806977
0.25359058 -0.22887105 -0.17307696 -0.10474065 0.16198689 -0.32587206 -0.03357022 -0.07499287
-0.28175366 -0.31803 -0.26170194 0.07156401 -0.21234748 -0.2358837 -0.189585 -0.10259218
0.3233607 -0.1715549 -0.08094101 -0.01217564 0.08723011 0.11495498 0.00881265 0.3025187
-0.01322946 -0.052180987 0.16224223 -0.05379506 -0.2284349 -0.07593053 -0.10184146 0.14993793
-0.3124764 0.0071230205 0.15641469 0.19382404 -0.15176934 0.011165268 -0.2739953 0.0817159
-0.110264786 0.026634904 -0.2280396 0.28678146 -0.12791608 -0.20879929 -0.02870216 -0.00374392
0.046630528 -0.034782406 0.08091172 0.031527992 0.2329674 0.065900095 -0.060081773 -0.31487036
0.03507203 0.11621975 -0.516083 0.015913557 0.0906518 -0.05918992 -0.29629064 -0.39008364
-0.01235523 -0.3926092 -0.17473412 -0.036710303 0.095363125 -0.06376596 0.026089884 -0.05944949
-0.20185785 -0.12575787 -0.071795866 -0.0019533522 -0.17612617 0.119462095 0.24503839 -0.2165524
-0.22365525 0.051028408 0.025449695 0.18227758 -0.029889338 -0.112826705 -0.0750268 0.19405073
0.062054057 -0.098230116 -0.08958113 0.07474693 0.28634283 -0.15608236 -0.1562968 -0.20194691
00000000: bb0e d63d c1b6 2d3d 0923 17bd ae3a 38bd
00000010: 9b22 bebd 0eb3 5f3d 6d88 323e 6874 94be
00000020: 767b 343e a35f abbc 3e24 8ebe 94cb a13e
00000030: afde 063f ec17 ffbd 3db6 06be 2585 513e
00000040: d4c8 92bd 7389 f1bd 71a3 28be 789e d7bd
00000050: 8318 8e3d 7891 f9bd 5063 b33d 062e 093e
00000060: 8fc3 b03e 73bd 4e3e 1279 49ba 484a ea3c
00000070: a612 da3d 0f29 3a3e b990 4bbe 99f2 313e
00000080: 25f8 833e 4c5b e23d ed9b 013e 4bac 6fbe
00000090: a5d5 d13c 766e 57be 90b8 b93b e0fc c63d
000000a0: 5c04 2cbc efd9 0d3e 8ade c0be e097 80be
000000b0: ebcb 8dbe bebe 10be f525 60be 9ba0 e3bc
000000c0: 84f6 57be 9072 1b3d e695 9dbc ef58 c1bd
000000d0: 7f8f e63d 2495 56bd 9c13 82bc 77a6 51be
000000e0: 17b0 03bd 52cb 273c 7e79 3d3d 6257 4abe
000000f0: 5c0e bcbd ecb3 2e3e 238b d53d 64af 9bbd
00000100: 5976 40bd 8303 a2bd 2e4b 81be 246c 023e
00000110: 53df d4bd c456 6d3e f32f 493e bb81 2b3e
00000120: 4b7c 94bd b021 0e3d a907 843d f127 9f3e
00000130: d6b7 a9be bae6 183e efed ad3e 09c6 323f
00000140: 7ec4 513e 5a50 41bd ba80 a23d c8d0 14be
00000150: 46bd 5b3d b733 7bbe f646 aabd c868 19be
00000160: 7238 ca3c c4c6 2abe 43c7 8cbe 8156 25bd
00000170: 2279 74bd f8c3 53be 4524 3dbd 32be 04be
00000180: 5291 edbc 42c1 11bd bc3f b03d 0a8d 813c
00000190: bf77 3abe 332b e33c 1224 273d b8f4 39be
000001a0: ae97 ddbd 96bf ad3e 8c2a 89bc eb5b 283d
000001b0: 892a 143d 6d00 5fbd 5e6b 3e3d 2a97 273c
000001c0: 4879 c03e f577 f23a aa81 c1be 9a0a 5b3e
000001d0: 7044 fb3e bcdf b23d 3d83 863e d031 c2bd
000001e0: eef9 bf3d 8ed0 c2bd 91ba 0e3e 4a56 163c
000001f0: 3f3f 8a3d 484b 8f3e 3510 0dbe 9d6c 0a3d
00000200: 1e70 17bf 887b 3e3e 680d 633e 25b4 11bd
00000210: 918f b8be 129b 043d e91d 5e3e f995 28be
00000220: c911 5dbe 4956 27bd 09a9 21bd 399b ae3d
00000230: 3d08 d53e 33d8 b0be ca7f 0ebe 18c6 2fbe
00000240: ecac aabe a16c 53bd ac6f 803e 8794 fdbc
00000250: d26a f73d ed8b 90be 213c 75be e2d0 91be
00000260: cff2 57bd 78b1 3b3b 04e9 8cbe 45c3 153e
00000270: 388e 8abe 11dd 57be 4b6e 48be ced8 c8bd
00000280: a0d6 813e 2c5d 6abe 163b 31be 4482 d6bd
00000290: e4df 253e b4d8 a6be ed80 09bd dd95 99bd
000002a0: 0442 90be d4d4 a2be ccfd 85be 2790 923d
000002b0: 9e71 59be 7f8b 71be 9222 42be d91b d2bd
000002c0: 898f a53e 16ac 2fbe 66c4 a5bd 567c 47bc
000002d0: b3a5 b23d 846d eb3d ef62 103c bbe3 9a3e
000002e0: 61c0 58bc bbbb 55bd d422 263e 3558 5cbd
000002f0: d7ea 69be 7781 9bbd 4192 d0bd 5489 193e
00000300: e8fc 9fbe 3a68 e93b 2c2b 203e cf79 463e
00000310: 6c69 1bbe 87ee 363c 1d49 8cbe aa5a a73d
00000320: 81d2 e1bd 7131 da3c 3783 69be 05d5 923e
00000330: 6ffc 02be 7bcf 55be cb20 ebbc 8e5c 75bb
00000340: a7ff 3e3d ff77 0ebd 0bb5 a53d 7f23 013d
00000350: 028f 6e3e a1f6 863d 4e18 76bd b036 a1be
00000360: b0a7 0f3d 9f04 ee3d 041e 04bf 265d 823c
00000370: a7a7 b93d 2171 72bd 68b3 97be 0bb9 c7be
00000380: 976d 4abc 1304 c9be 80ed 32be 8b5d 16bd
00000390: be4d c33d ba97 82bd 74ba d53c 4f81 73bd
000003a0: d3b3 4ebe acc6 00be b609 93bd d003 00bb
000003b0: 6b5a 34be 8ba8 f43d 58eb 7a3e eabf 5dbe
000003c0: e205 65be 2a03 513d e17b d03c f9a6 3a3e
000003d0: 7cda f4bc b011 e7bd a7a7 99bd 3cb5 463e
000003e0: 652c 7e3d df2c c9bd 5076 b7bd eb14 993d
000003f0: 879b 923e 0ed4 1fbe 450c 20be 2ccb 4ebe

fc3.bias f4 [64]
-0.02240096 -0.038073048 0.35688153 0.10276287 0.1465652 -0.21537364 0.1483877 -0.11394023
0.3003371 0.4966615 -0.108695045 0.51574445 0.0051563024 -0.12270021 -0.09424833 -0.21005528
0.0043720594 0.18952477 0.0038780638 0.44642344 -0.060112033 0.54753906 0.18046008 0.471458
-0.1741152 -0.08319158 -0.10840181 0.10873359 0.03842195 0.18061054 0.5250339 -0.03730791
-0.118110634 -0.11538734 -0.12660879 -0.08963929 -0.028138049 -0.10507966 -0.056175064 0.082504936
-0.10136053 0.13578258 0.0014788491 -0.12407122 0.16643976 0.4721363 -0.004475572 -0.11657553
-0.18928124 0.4130721 0.42329222 -0.090849616 0.19259936 -0.037706636 0.04015193 -0.19087079
0.10745276 -0.00068956666 -0.22380403 0.16098282 0.12501748 0.4599748 -0.09784139 0.01796278
00000000: 3882 b7bc 7cf2 1bbd 2db9 b63e 5775 d23d
00000010: 3015 163e e88a 5cbe f2f2 173e 7f59 e9bd
00000020: c9c5 993e 6b4a fe3e 829b debd d407 043f
00000030: 33f6 a83b 3f4a fbbd 4505 c1bd bb18 57be
00000040: 7e43 8f3b c812 423e 1d27 7e3b 9d91 e43e
00000050: 0938 76bd 852b 0c3f 87ca 383e f162 f13e
00000060: 414b 32be 5960 aabd c501 debd b7af de3d
00000070: 5660 1d3d f8f1 383e 9f68 063f 2ed0 18bd
00000080: fde3 f1bd 3350 ecbd bca5 01be ce94 b7bd
00000090: c481 e6bc 0134 d7bd d317 66bd 59f8 a83d
000000a0: 1c96 cfbd 970a 0b3e f1d5 c13a 0d19 febd
000000b0: 2f6f 2a3e d9bb f13e d2a7 92bb 27bf eebd
000000c0: f1d2 41be 307e d33e c2b9 d83e 5d0f babd
000000d0: c438 453e 4672 1abd 5a76 243d a273 43be
000000e0: 3110 dc3d 09c4 34ba e22c 65be aed8 243e
000000f0: 9504 003e d181 eb3e 1161 c8bd ae26 933c

fc4.weight f4 [4, 64]
0.46808946 -0.17994216 0.16779923 0.30536658 0.051442638 -0.14135906 0.11790448 -0.07520508
0.19431837 0.2464008 -0.13994731 0.20762019 -0.39125645 -0.14222386 0.046322145 -0.18598986
-0.06782748 0.26786262 -0.03702086 0.1626046 -0.20047852 0.21400274 -0.90841216 0.14101504
-0.23603912 -0.06094167 0.070261836 0.1505986 -0.008408959 0.1832653 0.1800482 0.06925519
-0.06693696 -0.040934358 0.23575781 0.021626487 -0.02175246 0.0397858 0.021783967 0.32671544
-0.3119341 0.15689889 -0.031711653 -0.026893402 0.28257352 0.18591018 -0.4161326 -0.2186532
-0.2346634 0.16797249 0.10979931 0.09772771 0.21408214 0.022370217 -0.49066335 -0.1029444
0.17658848 0.34290972 -0.24086076 0.1860188 0.205198 0.16294031 -0.12133672 -0.09966646
0.20310776 0.49186352 0.06699894 0.095851794 -0.009808658 -0.04376114 0.21022014 0.22182141
0.06125098 0.18277474 -0.084230006 0.08380714 -0.0008264731 0.05615403 -0.4230431 -0.17097461
-0.15007444 0.1376479 0.16548193 0.2327743 -0.34051627 0.2602092 -0.029758882 0.2091972
0.008348493 -0.09646462 -0.008805918 0.12533596 0.028663816 0.21766041 0.1821268 0.053623553
0.033686314 -0.074214056 -0.5054304 0.013159653 0.12177124 -0.06147559 -0.022845946 0.46676707
-0.41676906 0.21919726 0.15022185 0.13716576 0.25696266 0.13594772 -0.49483937 -0.25655577
-0.038705572 0.21905169 0.18231502 -0.032360926 0.1932811 -0.0063504665 -0.39705503 -0.031504948
0.3345014 0.2600537 -0.41660252 0.21735783 0.07069685 0.1735368 0.39933178 0.56237847
-0.38437068 -0.27545804 0.10056473 0.14922184 0.13165936 -0.23001327 0.21014445 -0.27013195
0.19700995 0.103423186 -0.35027575 0.18743674 -0.28297824 -0.48834738 0.117740095 -0.29792544
0.5259422 0.21347624 -0.24279213 0.19531398 0.19263116 0.23324575 -0.034287848 0.21123128
0.23543961 0.045977887 0.4129641 -0.32787538 0.036804836 -0.13814302 0.23629655 0.30331698
-0.31699565 0.080520235 0.19809379 -0.049263 -0.12350008 0.037298214 -0.6640401 0.122744404
-0.3434699 0.11777469 0.16543055 -0.32306832 -0.334269 0.18229495 -0.30983883 -0.5640068
0.10410241 0.029308865 0.22794807 0.06771762 0.17404887 -0.53187674 -0.21715099 0.27930304
0.11015939 0.45103994 -0.37118977 0.051389873 0.13201413 0.07599149 -0.37170357 -0.2373661
-0.106799565 -0.1732848 0.14721793 -0.13740326 0.14044313 0.3376174 0.2241212 -0.40387696
-0.0014487414 0.12162692 0.100490026 0.21842967 -0.23080203 -0.10448303 0.14299926 -0.26834917
0.39924803 0.16185057 0.5410525 0.08098892 0.017522864 0.22528297 0.05424675 0.2474309
-0.34679738 0.028673355 0.12866884 0.17216015 0.26084226 0.013449392 0.18680348 0.094553195
-0.5088338 0.06835454 -0.41824037 -0.08154613 -0.19700365 -0.03687141 -0.60203457 0.56792796
-0.35053158 -0.08559765 0.0011435854 -0.24898563 -0.13551658 0.1659189 -0.08882177 -0.45350823
0.09358643 0.23572542 0.1384123 -0.077397875 0.38389972 -0.10295503 -0.47427964 -0.16846943
0.35663593 0.105611734 0.12515195 0.24383518 -0.05118429 0.23097928 0.10475041 -0.19111285
00000000: 6ca9 ef3e c242 38be 90d3 2b3e 0259 9c3e
00000010: 84b5 523d 6ec0 10be e777 f13d 1f05 9abd
00000020: 65fb 463e 7e50 7c3e 594e 0fbe 639a 543e
00000030: c452 c8be 22a3 11be 4abc 3d3d 2074 3ebe
00000040: 22e9 8abd 4a25 893e 2fa3 17bd d281 263e
00000050: 3e4a 4dbe 8923 5b3e b38d 68bf 3f66 103e
00000060: 3db4 71be f99d 79bd 70e5 8f3d 8536 1a3e
00000070: bbc5 09bc e6a9 3b3e 8e5e 383e aad5 8d3d
00000080: 3f16 89bd c9aa 27bd 7f6a 713e 082a b13c
00000090: 3732 b2bc 6ff6 223d 4a74 b23c 3f47 a73e
000000a0: d4b5 9fbe 1aaa 203e 14e4 01bd 8d4f dcbc
000000b0: 7aad 903e 3d5f 3e3e 550f d5be a0e6 5fbe
000000c0: 9a4b 70be fb00 2c3e 76de e03d 7725 c83d
000000d0: 5938 5b3e bf41 b73c 3a38 fbbe 83d4 d2bd
000000e0: 9cd3 343e dd91 af3e 34a4 76be b67b 3e3e
000000f0: 6d1f 523e d3d9 263e 637f f8bd ee1d ccbd
00000100: 7bfb 4f3e 89d5 fb3e be36 893d f24d c43d
00000110: 7eb4 20bc e23e 33bd f343 573e 2725 633e
00000120: 4fe2 7a3d 4d29 3b3e c880 acbd 14a3 ab3d
00000130: aca7 58ba c501 663d 1b99 d8be f813 2fbe
00000140: 1dad 19be 92f3 0c3e 1874 293e 635c 6e3e
00000150: 2658 aebe 243a 853e e6c8 f3bc ca37 563e
00000160: 1ec8 083c 3e8f c5bd b246 10bc 1258 003e
00000170: 61d0 ea3c 5fe2 5e3e 737f 3a3e 5fa4 5b3d
00000180: a9fa 093d 8afd 97bd e363 01bf 969b 573c
00000190: 3363 f93d d4cd 7bbd 6c27 bbbc 18fc ee3e
000001a0: c162 d5be 3f75 603e c2d3 193e 2e75 0c3e
000001b0: 9c90 833e e135 0b3e 965b fdbe 475b 83be
000001c0: bc89 1ebd 164f 603e cab0 3a3e e48c 04bd
000001d0: 7beb 453e 9317 d0bb cc4a cbbe 550b 01bd
000001e0: c443 ab3e c225 853e ed4c d5be 0d93 5e3e
000001f0: 83c9 903d a2b3 313e 3775 cc3e 09f8 0f3f
00000200: 3ccc c4be d608 8dbe e2f4 cd3d 9ccd 183e
00000210: b6d1 063e 9988 6bbe 1b30 573e bc4e 8abe
00000220: fabc 493e 89cf d33d 5857 b3be 6bef 3f3e
00000230: 86e2 90be ab08 fabe b821 f13d af89 98be
00000240: 26a4 063f 8499 5a3e 809e 78be 6300 483e
00000250: 1a41 453e f9d7 6e3e 6a71 0cbd 034d 583e
00000260: 1517 713e 4f53 3c3d 0870 d33e 48df a7be
00000270: abc0 163d 5d75 0dbe b9f7 713e 5d4c 9b3e
00000280: 414d a2be cbe7 a43d 19d9 4a3e 00c8 49bd
00000290: 9ced fcbd 03c6 183d 88fe 29bf 6b61 fb3d
000002a0: 49db afbe db33 f13d a066 293e 3669 a5be
000002b0: 4e25 abbe 87ab 3a3e 32a3 9ebe c062 10bf
000002c0: a533 d53d 2519 f03c 386b 693e 89af 8a3d
000002d0: de39 323e 1329 08bf d45c 5ebe cf00 8f3e
000002e0: 3f9b e13d b5ee e63e 960c bebe 307e 523d
000002f0: b62e 073e 6da1 9b3d ee4f bebe 1910 73be
00000300: bbb9 dabd 9271 31be 4cc0 163e 71b3 0cbe
00000310: 53d0 0f3e 30dc ac3e 0780 653e f6c8 cebe
00000320: b2e3 bdba 8917 f93d b7cd cd3d 07ac 5f3e
00000330: 5e57 6cbe 33fb d5bd 666e 123e 1065 89be
00000340: 3d6a cc3e 28bc 253e 6b82 0a3f 85dd a53d
00000350: 1c8c 8f3c 94b0 663e d731 5e3d 875e 7d3e
00000360: 6d8f b1be 62e4 ea3c c4c1 033e c04a 303e
00000370: 1e8d 853e d75a 5c3c 6949 3f3e 1ba5 c13d
00000380: ef42 02bf 77fd 8b3d 9a23 d6be a801 a7bd
00000390: 53bb 49be 7a06 17bd f01e 1abf ba63 113f
000003a0: e078 b3be d24d afbd 5ce4 953a 17f6 7ebe
000003b0: dcc4 0abe a5e6 293e 30e8 b5bd 3b32 e8be
000003c0: 3eaa bf3d 0162 713e f4bb 0d3e c782 9ebd
000003d0: 818e c43e 16da d2bd c8d4 f2be 4083 2cbe
000003e0: fc98 b63e f74a d83d d527 003e eeaf 793e
000003f0: 9ea6 51bd d585 6c3e 6287 d63d 16b3 43be

fc4.bias f4 [4]
0.29096028 0.26712006 0.2942187 0.28616408
00000000: bff8 943e f6c3 883e d5a3 963e 1984 923e
