checkpoint.pth (torch, 80047 bytes, 8 tensors)

fc1.weight f4 [64, 37]
0.12587859 -0.13759792 -0.036653478 -0.1545256 -0.17845646 -0.028663984 -0.0020137355 0.11948828
0.14750461 0.23516013 0.0692252 -0.32257032 -0.053855307 0.012116408 0.15194051 -0.08014528
0.22162718 0.0653005 -0.15408228 0.1112861 0.12739284 -0.0029777416 0.09678958 0.00330327
0.08376378 0.3507377 -0.16156054 -0.15542667 -0.25474712 -0.73717356 -0.22084127 0.12403047
-0.11838299 0.09928402 -0.04339162 0.037108943 -0.012947123 0.192152 0.09349987 0.073225565
0.10764753 -0.14703532 0.36437804 -0.8265874 -0.7286249 -0.52565354 -1.7064433 0.120974235
0.0022579178 0.07528388 0.06779909 0.21504526 0.0913867 0.085762314 0.041632768 0.03623501
0.06911876 0.009593129 -0.08970304 -0.06455732 -0.044164315 0.110324636 0.027179042 0.029348142
0.04084622 0.025163477 -0.030234141 -0.0066858623 0.20959643 0.1752744 0.12577508 0.29513547
-0.017144987 0.004677757 0.118893206 -0.018874021 0.20209602 -0.32582095 -0.098308824 -0.4966292
-0.29205155 0.31241474 0.15714498 -0.23956463 0.021426301 -0.122177966 -0.07063092 -0.022204366
-0.19017288 -0.39529145 -0.14598052 0.31926402 0.16216928 -0.025300762 -0.21610601 -0.5550482
0.35823417 -0.36194798 -0.32416478 -0.40775353 0.43943134 -0.007190739 -0.09304978 -0.16805735
-0.2961756 -0.09244693 -0.002733311 -0.18574181 -0.021977296 -0.0134528205 -0.014074492 -0.1619354
-0.0373766 0.16910015 0.08550637 -0.028600655 -0.29656398 -0.47180176 0.27790296 0.26448336
0.15340412 -0.0090261735 -0.15058912 0.076612145 0.13679905 -0.13408992 -0.21108375 -0.016298857
-0.089446485 0.109932646 0.09413879 0.14163397 -0.104169175 0.034008216 -0.2043246 -0.4930206
-0.16689122 0.020697707 0.17650309 0.11524622 0.37297478 -0.050901532 0.3163539 0.20824412
-0.33439022 -0.44000655 0.06693178 -0.003415197 -0.14520277 -0.063070856 -0.08527226 -0.21534099
-0.11188062 0.3708485 -0.23560674 -0.34037578 -0.21270391 -1.6882842 -0.061634235 0.00206381
-0.008905158 -0.07892109 -0.109533295 -0.2450747 0.00029065987 0.05045183 0.11019608 0.150252
-0.119329914 -0.03144401 0.07869588 0.071918994 0.18300602 0.095369786 0.024313774 0.079483844
0.013420664 -0.13510607 0.14996716 -0.013898498 0.08670499 0.09437184 -0.06838532 -0.03902047
0.019148296 -0.1370731 -0.013672632 0.14093475 -0.16869676 0.2657417 0.09171747 0.15963958
0.07345735 -0.10519881 -0.1937163 -0.01126107 -0.060988072 -0.076431826 -0.16231917 0.057966504
0.16110286 -0.15038714 -0.028234925 -0.25898844 -0.5231668 0.06803323 -0.019988816 0.16908856
-0.03231049 0.0802323 0.040316038 -0.09993505 -0.16683327 -0.035796598 -0.34633005 0.10469548
-0.08052127 -0.060574062 -0.15676005 -0.31140444 0.17814396 0.030451952 0.25210738 0.065873146
-0.29351848 -0.13148195 -0.6536262 -0.21049173 -0.06734417 -0.008697005 0.39695358 0.153821
0.0585128 0.11542467 0.027906565 0.17125666 0.34086686 -0.02584402 -0.1667518 0.0202496
0.30192357 0.39110926 -0.0417433 0.038911067 -0.07106524 0.14863278 0.48606104 -0.023574706
0.078805745 -0.09716799 -0.13968283 0.004255949 -0.052100684 -0.11889848 0.08442473 0.24254252
00000000: 51e6 003e 78e6 0cbe f521 16bd f53b 1ebe
00000010: 4abd 36be bbd0 eabc e0f8 03bb 45b6 f43d
00000020: 730b 173e d1cd 703e f1c5 8d3d f027 a5be
00000030: 6297 5cbd e683 463c 4b96 1b3e 3523 a4bd
00000040: 3cf2 623e 45bc 853d bfc7 1dbe f7e9 e33d
00000050: 4573 023e 3726 43bb 9e39 c63d ad7b 583b
00000060: 588c ab3d e493 b33e 2070 25be 2b28 1fbe
00000070: 376e 82be 68b7 3cbf 3724 62be b003 fe3d
00000080: c872 f2bd 6c55 cb3d 69bb 31bd 8cff 173d
00000090: 2b20 54bc 7ec3 443e dc7c bf3d 49f7 953d
000000a0: 4f76 dc3d 6d90 16be c28f ba3e 3b9b 53bf
000000b0: 2987 3abf 3b91 06bf bc6c dabf 57c1 f73d
000000c0: 93f9 133b 6f2e 9a3d 40da 8a3d d334 5c3e
000000d0: f328 bb3d 27a4 af3d 1f87 2a3d 296b 143d
000000e0: 238e 8d3d 802c 1d3c 3ab6 b7bd a136 84bd
000000f0: a4e5 34bd e2f1 e13d 95a6 de3c 846b f03c
00000100: 5e4e 273d a323 ce3c 97ad f7bc 1415 dbbb
00000110: 72a0 563e 227b 333e 2fcb 003e ff1b 973e
00000120: a573 8cbc df47 993b 487e f33d b19d 9abc
00000130: 42f2 4e3e 01d2 a6be 2356 c9bd 2f46 febe
00000140: c887 95be d3f4 9f3e 9dea 203e 6e50 75be
00000150: 3686 af3c 7138 fabd f2a6 90bd eee5 b5bc
00000160: aebc 42be a463 cabe eb7b 15be 9376 a33e
00000170: b40f 263e 8b43 cfbc e54a 5dbe a417 0ebf
00000180: 786a b73e 3f51 b9be edf8 a5be 12c5 d0be
00000190: 25fd e03e 4aa0 ebbb e290 bebd 3a17 2cbe
000001a0: 54a4 97be d154 bdbd 5921 33bb 1a33 3ebe
000001b0: bb09 b4bc 3869 5cbc b398 66bc 65d2 25be
000001c0: 3518 19bd 9728 2d3e f71d af3d ec4b eabc
000001d0: 3cd7 97be 0090 f1be 4c49 8e3e 5d6a 873e
000001e0: f815 1d3e 84e2 13bc 0934 1abe d4e6 9c3d
000001f0: 0d15 0c3e de4e 09be 5726 58be 2e85 85bc
00000200: b82f b7bd 5e24 e13d d7cb c03d 7f08 113e
00000210: a656 d5bd 334c 0b3d 783a 51be 326d fcbe
00000220: 88e5 2abe 3d8e a93c 3abd 343e 3606 ec3d
00000230: 8df6 be3e 207e 50bd 23f9 a13e f23d 553e
00000240: 3235 abbe 8a48 e1be 8713 893d 7fd1 5fbb
00000250: 09b0 14be 4b2b 81bd 39a3 aebd 5982 5cbe
00000260: ab21 e5bd dbdf bd3e e542 71be bc45 aebe
00000270: 0ecf 59be b219 d8bf 2e74 7cbd fc40 073b
00000280: f1e6 11bc 61a1 a1bd fe52 e0bd ddf4 7abe
00000290: b563 9839 94a6 4e3d 7bae e13d a9db 193e
000002a0: 3e63 f4bd 6fcb 00bd 4e2b a13d 444a 933d
000002b0: ee65 3b3e 3c51 c33d ae2d c73c 6dc8 a23d
000002c0: 58e2 5b3c 3f59 0abe fe90 193e 87b6 63bc
000002d0: 6392 b13d 0646 c13d 9a0d 8cbd eed3 1fbd
000002e0: e3dc 9c3c e45c 0cbe 2d03 60bc 3351 103e
000002f0: d8be 2cbe 4c0f 883e 5ed6 bb3d 8f78 233e
00000300: cf70 963d 7972 d7bd 915d 46be 5a80 38bc
00000310: a1ce 79bd 4a88 9cbd ff36 26be 496e 6d3d
00000320: 26f8 243e 16ff 19be ee4c e7bc 229a 84be
00000330: 42ee 05bf 0255 8b3d 96bf a3bc 8d25 2d3e
00000340: 0158 04bd d550 a43d 6e22 253d bfaa ccbd
00000350: 57d6 2abe 749f 12bd 2c52 b1be 956a d63d
00000360: 56e8 a4bd 821c 78bd b585 20be 6770 9fbe
00000370: 5f6b 363e 5f76 f93c 3814 813e 80e8 863d
00000380: 0e48 96be 34a3 06be 0c54 27bf 258b 57be
00000390: bdeb 89bd e27d 0ebc 803d cb3e 4183 1d3e
000003a0: 1eab 6f3d c563 ec3d 4f9c e43c e85d 2f3e
000003b0: 1a86 ae3e d7b6 d3bc fcc0 2abe 7de2 a53c
000003c0: ba95 9a3e 793f c83e 06fb 2abd 3661 1f3d
000003d0: a78a 91bd 3133 183e fedc f83e be1f c1bc
000003e0: e864 a13d 0300 c7bd 0409 0fbe 7d75 8b3b
000003f0: 8767 55bd 0c81 f3bd dfe6 ac3d 115d 783e

fc1.bias f4 [64]
0.12526895 0.057757095 -0.15632708 -0.07292263 0.21154611 -0.06353663 -0.08143263 0.12025862
0.06313563 -0.1554547 0.20807151 0.13088436 0.23093605 0.07182745 -0.14551084 -0.04519182
0.0034415398 -0.06820278 0.027904218 -0.16397439 -0.14777105 0.04648628 -0.008659215 -0.055418056
-0.03842538 0.1315866 0.032056905 -0.15305008 0.16115361 0.09784853 0.010408004 -0.07378333
0.089015394 0.048838276 -0.12798412 0.030253865 0.004497932 0.062727936 0.030496199 -0.11008002
-0.012901267 -0.04948873 -0.088445 0.14996405 -0.014105043 -0.047812816 0.030355329 -0.14795554
-0.07762149 0.12584798 -0.14013495 0.20714031 0.006474344 -0.093651086 -0.13928916 0.03099621
0.082995325 0.00046654878 -0.04338901 -0.05170881 0.033631872 0.04952695 0.049980152 0.081859976
00000000: 8146 003e b492 6c3d 3514 20be 7658 95bd
00000010: 8b9f 583e 7e1f 82bd 27c6 a6bd 274a f63d
00000020: 414d 813d 842f 1fbe b310 553e 8d06 063e
00000030: 807a 6c3e 451a 933d cb00 15be 0f1b 39bd
00000040: 758b 613b e6ad 8bbd 6397 e43c e7e8 27be
00000050: 4b51 17be 6668 3e3d 61df 0dbc 0bfe 62bd
00000060: ee63 1dbd a3be 063e 1a4e 033d 29b9 1cbe
00000070: 7405 253e cf64 c83d 5586 2a3c b71b 97bd
00000080: b44d b63d a50a 483d 450e 03be f4d6 f73c
00000090: 6363 933b 8177 803d 2ad3 f93c a271 e1bd
000000a0: d65f 53bc b2b4 4abd a722 b5bd 2d90 193e
000000b0: d718 67bc 5fd7 43bd bdab f83c a881 17be
000000c0: 04f8 9ebd 4bde 003e 897f 0fbe 971c 543e
000000d0: bc26 d43b 24cc bfbd d1a1 0ebe c4eb fd3c
000000e0: 74f9 a93d 1e9b f439 adb8 31bd 9ecc 53bd
000000f0: 93c1 093d c5dc 4a3d fdb7 4c3d 34a6 a73d

fc2.weight f4 [128, 64]
-0.12812878 0.07006905 -0.02084785 0.13374348 0.20157006 -0.008164296 -0.19717889 0.03891545
0.06733939 0.18679303 -0.083234854 -0.049885508 -0.118095584 0.12738673 -0.41109324 0.051873237
-0.37684447 -0.14555849 0.060467795 -0.1125838 -0.34700316 -0.24072793 -0.0008670224 0.01737876
-0.066041425 -0.34418613 0.12865524 -0.02400872 -0.07197431 -0.48494133 0.27916473 -0.029606119
0.024100406 -0.028096057 -0.034636773 0.07368756 -0.17875773 -0.12949698 0.047473352 -0.61955094
-0.14872023 0.15067272 0.2674616 -0.07917946 0.07834599 -0.28545085 -0.26030248 0.22349419
-0.24728051 -0.31651384 -0.054397393 -0.20607767 -0.09464529 -0.43483692 0.1494531 -0.085740045
-0.0025899294 -0.264268 -0.29257908 -0.05338665 -0.047871962 0.02788571 -0.07085953 -0.0037275283
-0.16799895 0.11276652 -0.33246836 -0.25259754 -0.021668484 0.06831817 -0.24232416 -0.091591045
-0.058935035 -0.12323697 0.05672762 -0.09825666 -0.051430993 0.15126044 -0.41969427 0.15128796
-0.06429193 0.1425693 -0.20412849 0.27200097 0.016335564 -0.5772036 -0.033588085 -0.6151639
-0.060148798 0.06607864 -0.056902755 -0.359015 -0.098581925 -0.14936957 -0.17669635 -0.21530862
-0.2983221 0.034649905 -0.034213576 -0.049848177 0.005132038 -0.19829747 0.28032696 -0.026838433
0.0070002684 -0.3024035 -0.41293514 -0.42826605 -0.4531007 -0.23166233 -0.20639855 -0.5550767
-0.19558927 -0.4886849 -0.0028865759 0.117412426 0.03647813 -0.61459863 0.23517254 0.08755661
-0.17426246 0.13194303 0.2250463 0.34689385 -0.34119156 0.061623577 -0.081877634 -0.19414629
-0.07401833 -0.063961804 0.1275216 -0.04843734 -0.39468572 0.11466374 -0.17219476 -0.15628508
-0.10310041 0.103156164 0.3519453 -0.110162236 0.14674175 0.029967064 0.07456239 0.17538492
-0.17430778 -0.10173951 0.14188287 -0.008697412 -0.5192225 -0.1262895 -0.4488024 -0.47241887
-0.31341586 -0.53407884 0.0034407768 -0.41083565 -0.2841161 -0.13149124 -0.21589173 -0.10416946
-0.14470229 0.023189012 -0.0986762 0.07260141 0.33253098 0.12978968 -0.027617697 -0.453502
0.13155149 -0.61042273 -0.10192293 -0.1082296 -0.23811752 -0.22151719 0.046158176 -0.20038307
0.178215 -0.2083113 -0.07063379 -0.15266815 -0.55196583 -0.008424275 -0.043215875 -0.10133492
-0.14187399 -0.14283784 0.09473576 0.06776923 -0.15955645 0.1126402 0.13241673 0.037249085
0.0021274465 -0.121608295 -0.048327915 -0.20169947 -0.09259 -0.0690908 -0.022421183 -0.09716754
-0.06464219 0.14236657 -0.057685576 0.07660969 -0.20285782 0.1043421 0.063081406 0.006508012
-0.041353304 -0.076956816 -0.060037266 -0.1940082 0.011863327 0.2154818 -0.09722535 0.051210616
0.08987965 -0.016742332 0.30075476 0.08146552 0.24839191 -0.22166261 0.16958174 0.011170022
-0.08339089 -0.06983691 0.09667815 -0.038949642 -0.107668914 0.27022204 0.1719228 -0.050187882
-0.019073285 0.20001787 0.02410157 0.084357195 0.030167276 0.05779995 -0.013640036 0.06609041
0.11591779 0.091017134 -0.13679594 0.11001135 0.080216244 0.08223958 0.19281642 0.044725116
-0.038811672 -0.027770123 -0.11172156 -0.0667438 -0.17657956 0.10845223 -0.097208776 -0.17414334
00000000: 3134 03be 5d80 8f3d 1cc9 aabc 0df4 083e
00000010: 6268 4e3e 8ac3 05bc 43e9 49be cf65 1f3d
00000020: 3ce9 893d ac46 3f3e 0977 aabd bf54 4cbd
00000030: 19dc f1bd ab71 023e d07a d2be 0879 543d
00000040: c2f1 c0be 490d 15be 14ad 773d 5692 e6bd
00000050: 66aa b1be 6281 76be e348 63ba e75d 8e3c
00000060: ba40 87bd 2a39 b0be 33be 033e efad c4bc
00000070: 4467 93bd 3b4a f8be aeee 8e3e 8888 f2bc
00000080: 376e c53c b429 e6bc 4adf 0dbd 81e9 963d
00000090: 440c 37be db9a 04be 6b73 423d e49a 1ebf
000000a0: 1e4a 18be f349 1a3e baf0 883e d728 a2bd
000000b0: dd73 a03d 9d26 92be 5e46 85be a9db 643e
000000c0: 1a37 7dbe 1a0e a2be cdcf 5ebd 0606 53be
000000d0: 64d5 c1bd f2a2 debe 3c0a 193e 7a98 afbd
000000e0: cebb 29bb 234e 87be edcc 95be f6ab 5abd
000000f0: 6415 44bd 9370 e43c cd1e 91bd 8c49 74bb
00000100: eb07 2cbe 22f2 e63d 4b39 aabe 7754 81be
00000110: 1b82 b1bc 66ea 8b3d d323 78be 1694 bbbd
00000120: dd65 71bd aa63 fcbd 395b 683d ca3a c9bd
00000130: 4ea9 52bd 04e4 1a3e 2be2 d6be 3beb 1a3e
00000140: 7dab 83bd b0fd 113e 0f07 51be b643 8b3e
00000150: 29d2 853c 9dc3 13bf a993 09bd 627b 1dbf
00000160: 965e 76bd 3d54 873d dd12 69bd d0d0 b7be
00000170: 52e5 c9bd 56f4 18be e3ef 34be dd79 5cbe
00000180: adbd 98be 0fed 0d3d 8923 0cbd 9a2d 4cbd
00000190: a82a a83b 7e0e 4bbe 0487 8f3e 46dc dbbc
000001a0: 8262 e53b a2d4 9abe 3c6c d3be b045 dbbe
000001b0: d1fc e7be e438 6dbe 245a 53be 8219 0ebf
000001c0: 8e48 48be e834 fabe b52c 3dbb ed75 f03d
000001d0: 176a 153d 5656 1dbf 12d1 703e e150 b33d
000001e0: dc71 32be 131c 073e 8a72 663e 129c b13e
000001f0: a9b0 aebe 0169 7c3d 76af a7bd 49ce 46be
00000200: ec96 97bd 68fe 82bd 0695 023e 3b66 46bd
00000210: 3f14 cabe d3d4 ea3d d353 30be 3209 20be
00000220: 4f26 d3bd 8a43 d33d 2d32 b43e bd9c e1bd
00000230: 7843 163e 7d7d f53c 2bb4 983d 1b98 333e
00000240: bd7d 32be ce5c d0bd be49 113e 977f 0ebc
00000250: c4eb 04bf 0952 01be 6ec9 e5be e3e0 f1be
00000260: 0b78 a0be 64b9 08bf a87e 613b 0d59 d2be
00000270: aa77 91be a4a5 06be b912 5dbe cc56 d5bd
00000280: d62c 14be e2f6 bd3c bf16 cabd 0cb0 943d
00000290: 8041 aa3e 96e7 043e 823e e2bc 6a31 e8be
000002a0: 6fb5 063e aa44 1cbf f8bc d0bd 7ba7 ddbd
000002b0: 14d5 73be 67d5 62be 5b10 3d3d 3831 4dbe
000002c0: fe7d 363e 8f4f 55be 73a8 90bd 0a55 1cbe
000002d0: a24d 0dbf f805 0abc 2103 31bd af88 cfbd
000002e0: 6a47 11be 1544 12be d204 c23d 98ca 8a3d
000002f0: c462 23be e8af e63d 4098 073e 7f92 183d
00000300: a16c 0b3b c50d f9bd 7ef3 45bd 4e8a 4ebe
00000310: d39f bdbd 7a7f 8dbd a1ac b7bc c6ff c6bd
00000320: 2063 84bd 8bc8 113e b647 6cbd 8be5 9c3d
00000330: f6b9 4fbe 50b1 d53d d330 813d 2941 d53b
00000340: 1562 29bd 899b 9dbd a3e9 75bd 16aa 46be
00000350: 665e 423c 43a7 5c3e 161e c7bd 39c2 513d
00000360: d212 b83d 3727 89bc 87fc 993e 65d7 a63d
00000370: 735a 7e3e 86fb 62be d6a6 2d3e 7802 373c
00000380: d8c8 aabd a706 8fbd 32ff c53d a989 1fbd
00000390: 8581 dcbd 8b5a 8a3e 880c 303e cf91 4dbd
000003a0: 943f 9cbc 7cd1 4c3e a870 c53c 77c3 ac3d
000003b0: 5d21 f73c a4bf 6c3d 757a 5fbc 695a 873d
000003c0: 4e66 ed3d 3167 ba3d 3c14 0cbe a14d e13d
000003d0: 6a48 a43d 3a6d a83d ab71 453e af31 373d
000003e0: fdf8 1ebd 2b7e e3bc 46ce e4bd f9b0 88bd
000003f0: 46d1 34be 341c de3d 6515 c7bd a252 32be

fc2.bias f4 [128]
-0.012104851 -0.08171115 0.021200966 -0.039537486 0.15373993 0.07320496 0.024272628 -0.08299857
0.05523461 0.23592648 0.09007134 -0.12641878 -0.08676237 -0.18939207 -0.06357758 -0.09593897
-0.044436324 0.051466946 0.11120335 -0.047993068 -0.003535657 -0.05533823 -0.1410623 -0.102963895
-0.07609197 0.03695513 0.022493208 0.033393957 0.060813397 0.08702288 0.0016687121 0.003375924
-0.18501939 0.117193334 0.165163 0.055991296 0.011179905 0.11060805 -0.13847156 -0.18689351
0.1479477 -0.0124777965 0.0005676717 0.05369121 0.018817428 0.008899654 -0.15082668 -0.12788682
-0.021280076 -0.15917058 0.18572006 -0.088534325 0.13411917 -0.04120515 -0.05068692 0.10741384
-0.12134321 -0.034554947 0.036061358 0.1412604 -0.026551062 0.058197323 0.049805366 0.014459164
-0.041294765 0.06925875 -0.009613038 -0.114710465 -0.0073140273 0.10512299 0.067943886 0.011817545
-0.07153155 -0.020502714 0.03569008 -0.056571815 0.20703796 0.020553082 0.01594658 -0.100374304
-0.20664206 0.033640224 -0.06379316 0.12283089 0.07238573 0.10721915 0.015079477 0.13148428
-0.08336241 -0.043800324 -0.025567079 0.07642239 0.05356208 0.015289793 -0.15570165 -0.20310819
-0.0924874 -0.014078405 0.050896958 -0.16785377 -0.12719297 0.114143446 0.08299717 -0.05302218
-0.0370169 0.059597865 0.22666518 -0.050725266 0.2258864 0.050445173 -0.0661002 -0.12725426
-0.1413387 0.053035982 0.0016616804 0.12034354 -0.11160292 0.07999094 0.10343165 0.05279788
-0.09902039 -0.052546408 0.07309149 -0.11253131 0.019632192 -0.03751172 -0.053797845 -0.0005008838
00000000: 6d53 46bc 2d58 a7bd a6ad ad3c 0ff2 21bd
00000010: 006e 1d3e 7bec 953d 64d7 c63c 27fb a9bd
00000020: b03d 623d b696 713e 5377 b83d ed73 01be
00000030: 78b0 b1bd ffef 41be f634 82bd a77b c4bd
00000040: dd02 36bd 01cf 523d 95be e33d 6194 44bd
00000050: 7bb6 67bb 57aa 62bd a372 10be bcde d2bd
00000060: 1bd6 9bbd 435e 173d ad43 b83c 1ac8 083d
00000070: 7817 793d 0d39 b23d b0b8 da3a 9b3e 5d3b
00000080: b975 3dbe 0f03 f03d 7d20 293e 2157 653d
00000090: ec2b 373c 7986 e23d 7dcb 0dbe 0361 3fbe
000000a0: 9a7f 173e ac6f 4cbc cecf 143a 50eb 5b3d
000000b0: 0227 9a3c dbcf 113c 4f72 1abe c3f4 02be
000000c0: 8e53 aebc 9dfd 22be 662d 3e3e 7c51 b5bd
000000d0: 8956 093e bbc6 28bd 169d 4fbd cafb db3d
000000e0: ca82 f8bd 7d89 0dbd 13b5 133d 91a6 103e
000000f0: 9d81 d9bc 5160 6e3d b600 4c3d 21e6 6c3c
00000100: b324 29bd 88d7 8d3d 0180 1dbc 52ed eabd
00000110: 82aa efbb b94a d73d 2a26 8b3d 609e 413c
00000120: 227f 92bd 4ff5 a7bc c32f 123d d9b7 67bd
00000130: c201 543e f05e a83c 67a2 823c 0b91 cdbd
00000140: fa99 53be 55ca 093d fda5 82bd c38e fb3d
00000150: f83e 943d b795 db3d e90f 773c d1a3 063e
00000160: e9b9 aabd f867 33bd 0d72 d1bc 5883 9c3d
00000170: e963 5b3d 0a82 7a3c 4170 1fbe 98fb 4fbe
00000180: 096a bdbd 1ca9 66bc 5479 503d dce1 2bbe
00000190: e03e 02be 0ac4 e93d 6cfa a93d c92d 59bd
000001a0: 089f 17bd e41c 743d eb1a 683e 4cc5 4fbd
000001b0: c44e 673e 999f 4e3d 8b5f 87bd f14e 02be
000001c0: 18bb 10be 423c 593d becc d93a ad76 f63d
000001d0: 1290 e4bd 4ad2 a33d f9d3 d33d 9742 583d
000001e0: 34cb cabd e73a 57bd feb0 953d d176 e6bd
000001f0: b1d3 a03c e4a5 19bd 215b 5cbd be4d 03ba

fc3.weight f4 [64, 128]
-0.055855203 -0.16811557 -0.3273538 0.05720081 -0.28142768 0.099157676 -0.01667915 -0.046315145
0.27312702 -0.04712786 0.011934688 -0.30254772 -0.012093737 -0.050879717 -0.5535558 -0.18492603
-0.28728533 0.027283302 0.2420652 -0.08147563 -0.012659806 -0.2666569 -0.14071614 0.024658516
-0.028688174 0.15226386 0.0023711652 -0.25259447 0.024341794 0.05227161 -0.4067641 0.25706145
-0.05142878 0.21615312 0.09364622 0.05400824 -0.24393055 -0.055026673 0.0056677535 0.0032209244
-0.218505 0.30368304 -0.260408 -0.23935674 -0.16317162 -0.14159086 -0.25567627 0.06435797
0.16351213 0.053817976 0.024006939 0.07311692 -0.0033873052 0.19180007 -0.08205131 -0.12490508
-0.17971483 -0.057314083 -0.189925 -0.28930852 -0.32140416 0.2531391 -0.020453898 0.004416542
0.12830976 -0.0012153765 -0.22526616 -0.14136504 -0.18108186 0.20099472 -0.08079286 -0.013043393
0.16920257 -0.35432348 0.11143278 0.20220938 -0.07793979 -0.23127964 0.10998807 0.0724049
-0.041069027 -0.06643496 0.05715448 0.14645359 -0.46576804 -0.26371372 0.019838782 -0.1670946
-0.1225072 0.005901211 0.089313634 -0.26276022 0.023551146 0.15024301 -0.15160969 0.11874393
0.111849956 0.1739198 -0.43913427 -0.051563717 0.0021671478 0.24315608 -0.12433094 0.08597569
-0.084776126 -0.29610318 -0.04862405 -0.07105029 -0.02293964 -0.03414389 -0.13888185 -0.105654344
-0.06780431 -0.345244 -0.43218923 0.07040358 0.029227562 -0.11944055 0.24919195 -0.17791261
0.10936641 -0.23414274 0.008282609 -0.112372234 -0.09416631 0.2878136 -0.023075627 -0.15289688
0.28906047 0.14825483 0.31479484 -0.47893906 -0.3977652 0.101593256 0.052113947 0.0069669783
0.079194985 0.0615271 -0.09129835 0.06378083 0.50051194 0.2546914 0.08003206 -0.11989061
-0.08757408 0.052445695 0.078042924 -0.3588997 -0.33043274 0.40360832 -0.38016152 0.33198163
-0.1205762 -0.081976965 -0.2113946 -0.019074177 -0.67375785 0.06591394 0.053119656 0.12333183
0.20803784 -0.3343636 -0.06321384 0.052634746 0.34819138 -0.15416299 -0.03357022 -0.23787367
0.21305576 0.16934136 -0.06816343 0.15927522 -0.074534304 -0.20629276 0.1186899 -0.06763085
0.4698125 0.21105209 -0.21348119 -0.040201075 -0.07451877 -0.24782112 0.20689158 -0.0049109943
0.10577347 -0.3082899 0.4459004 0.14442292 -0.09243268 0.10476682 -0.017918749 0.014168443
-0.4979525 -0.33781615 0.12532465 0.10888647 0.19351909 -0.22979523 0.1601887 0.18569702
-0.16902764 0.053794093 0.26192635 0.16702041 0.037073314 0.0055675157 -0.19971025 -0.39543188
0.054168507 0.10870274 -0.059144914 0.014972303 -0.26923618 -0.35169968 0.23799512 -0.039086256
0.20590366 -0.2413672 0.020745303 0.09497948 -0.089491636 -0.11036423 0.013709339 -0.579054
-0.32278338 0.06851922 0.02000701 0.19063273 -0.27169538 -0.0826865 0.052432228 -0.17081252
0.0421232 -0.024900578 -0.28979912 -0.059447683 0.04143794 0.098392524 0.15730715 0.072767526
0.18184003 0.030986527 -0.06802685 0.15894651 -0.19740303 -0.23585413 -0.013101258 0.10141226
0.1242357 -0.49805725 -0.040457457 0.12570752 0.12209552 -0.17849013 0.018948702 0.10329512
00000000: 6dc8 64bd 7d26 2cbe eb9a a7be 664b 6a3d
00000010: 4a17 90be 2e13 cb3d b6a2 88bc f3b4 3dbd
00000020: 4ed7 8b3e 2509 41bd b689 433c 89e7 9abe
00000030: cf24 46bc 4067 50bd d5b5 0dbf 405d 3dbe
00000040: 1017 93be 3b81 df3c f1df 773e b2dc a6bd
00000050: 136b 4fbc 4187 88be e417 10be a800 ca3c
00000060: 7603 ebbc 0feb 1b3e 8d65 1b3b 1054 81be
00000070: 7168 c73c c11a 563d 6243 d0be 8f9d 833e
00000080: fca6 52bd 3e57 5d3e 97c9 bf3d bf37 5d3d
00000090: eec8 79be a663 61bd 90b8 b93b 2516 533b
000000a0: c6bf 5fbe 587c 9b3e 3354 85be ef19 75be
000000b0: 7616 27be 32fd 10be 00e8 82be 1dce 833d
000000c0: b96f 273e 3d70 5c3d 33aa c43c 53be 953d
000000d0: 8dfd 5dbb 3d67 443e 840a a8bd 3cce ffbd
000000e0: 2a07 38be 2cc2 6abd b37b 42be 3f20 94be
000000f0: 168f a4be 739b 813e ef8e a7bc a4b8 903b
00000100: a263 033e 454d 9fba 2cac 66be ffc1 10be
00000110: 866d 39be 8fd1 4d3e ba76 a5bd f5b3 55bc
00000120: 7043 2d3e e369 b5be df36 e43d fa0f 4f3e
00000130: e69e 9fbd 92d4 6cbe 6d41 e13d 0549 943d
00000140: ff37 28bd 0d0f 88bd d11a 6a3d eef7 153e
00000150: 2679 eebe 7c05 87be f184 a23c d91a 2bbe
00000160: 0ee5 fabd f25e c13b 11ea b63d 8288 86be
00000170: 55ee c03c 4ed9 193e 923f 1bbe 0430 f33d
00000180: 9711 e53d 0818 323e 35d6 e0be 7a34 53bd
00000190: b506 0e3b e8fd 783e 38a1 febd 0614 b03d
000001a0: 1b9f adbd d69a 97be 032a 47bd d082 91bd
000001b0: e9eb bbbc 77da 0bbd 0b37 0ebe 4e61 d8bd
000001c0: fcdc 8abd d2c3 b0be e847 ddbe c12f 903d
000001d0: a46e ef3c 3f9d f4bd 2d2c 7f3e b92e 36be
000001e0: 7ffb df3d 1dc3 6fbe c8b3 073c 6a23 e6bd
000001f0: 44da c0bd 4e5c 933e 1909 bdbc 0091 1cbe
00000200: bcff 933e 1dd0 173e ca2c a13e 8037 f5be
00000210: e1a7 cbbe 2010 d03d 6f75 553d 404b e43b
00000220: fb30 a23d d703 7c3d a1fa babd 869f 823d
00000230: 8d21 003f e966 823e d9e7 a33d 3589 f5bd
00000240: 0a5a b3bd 4cd1 563d f8d4 9f3d b4c1 b7be
00000250: 7b2e a9be c0a5 ce3e 88a4 c2be 7ff9 a93e
00000260: a8f0 f6bd 8ae3 a7bd d377 58be 7341 9cbc
00000270: 657b 2cbf e3fd 863d ff93 593d 6695 fc3d
00000280: df07 553e b531 abbe 4276 81bd 8897 573d
00000290: 2446 b23e e7dc 1dbe ed80 09bd 2895 73be
000002a0: 4a2b 5a3e d267 2d3e 4599 8bbd 0b19 233e
000002b0: 71a5 98bd 693e 53be b113 f33d 0b82 8abd
000002c0: 448b f03e 0a1e 583e d09a 5abe e2a9 24bd
000002d0: 4c9d 98bd d2c4 7dbe 63db 533e 68ec a0bb
000002e0: c39f d83d 2cd8 9dbe 0f4d e43e 9ae3 133e
000002f0: 584d bdbd fd8f d63d 57ca 92bc c222 683c
00000300: a1f3 febe 3df6 acbe 1b55 003e dfff de3d
00000310: de29 463e 714f 6bbe 8208 243e 5c27 3e3e
00000320: 9515 2dbe 3257 5c3d 361b 863e 6607 2b3e
00000330: 30da 173d b56f b63b d880 4cbe 0c76 cabe
00000340: ccdf 5d3d 8b9f de3d f041 72bd 644e 753c
00000350: 53d9 89be fb11 b4be feb4 733e e918 20bd
00000360: 69d8 523e f728 77be 0ef2 a93c 9a84 c23d
00000370: 6447 b7bd a406 e2bd 239d 603c e23c 14bf
00000380: dd43 a5be ce53 8c3d bee5 a33c 3a35 433e
00000390: a81b 8bbe 8a57 a9bd 2dc3 563d 7ae9 2ebe
000003a0: 6089 2c3d 4cfc cbbc 8d60 94be 6a7f 73bd
000003b0: d4ba 293d 0582 c93d 2015 213e 2407 953d
000003c0: 4634 3a3e 75d7 fd3c a951 8bbd e0c2 223e
000003d0: 0524 4abe bf83 71be a9a6 56bc 3bb1 cf3d
000003e0: 496f fe3d 5c01 ffbe b8b6 25bd 79b9 003e
000003f0: 370d fa3d 1ec6 36be 4f3a 9b3c 648c d33d

fc3.bias f4 [64]
-0.058741827 -0.052193906 0.4024698 0.021864614 -0.0077324887 -0.0009030876 0.54646343 -0.053465053
0.32717994 0.51525396 -0.10276548 0.5535274 0.026501242 -0.16128537 -0.036032792 -0.056962773
-0.19384688 0.18165022 -0.08661424 0.45050466 0.016870854 0.57077 -0.26617488 0.49060568
0.0005581149 -0.049414877 -0.035472225 0.10141108 -0.10106403 0.14426519 0.55274266 -0.03628999
-0.10746557 0.01856942 -0.19729726 -0.10610009 -0.026504595 -0.110052705 -0.120524414 0.015480842
-0.09442779 0.13086979 0.0023731228 0.2018449 0.21598412 0.50448877 -0.21102129 0.061984327
-0.12425239 0.42315188 0.4701582 -0.088813454 0.4054374 -0.1406657 -0.043435894 -0.28537586
0.15226342 0.046323635 -0.1262075 0.15194958 0.21070337 0.45064038 0.08848424 -0.047228735
00000000: 459b 70bd 47c9 55bd 8610 ce3e 6b1d b33c
00000010: d160 fdbb 2fbd 6cba 07e5 0b3f 2cfe 5abd
00000020: 2184 a73e afe7 033f b576 d2bd f9b3 0d3f
00000030: 2219 d93c fe27 25be 1f97 13bd cc51 69bd
00000040: cc7f 46be 8402 3a3e cf62 b1bd 8ca8 e63e
00000050: bf34 8a3c fc1d 123f 1348 88be ab30 fb3e
00000060: 754e 123a 4167 4abd 534b 11bd 9db0 cf3d
00000070: a8fa cebd 41ba 133e 8b80 0d3f d0a4 14bd
00000080: e916 dcbd e51e 983c 4b08 4abe 014b d9bd
00000090: 2a20 d9bc 5063 e1bd 81d5 f6bd 5ca3 7d3c
000000a0: 5b63 c1bd bb02 063e 6586 1b3b 6eb0 4e3e
000000b0: f12a 5d3e 2d26 013f f715 58be 47e3 7d3d
000000c0: 0978 febd 5da7 d83e 93b8 f03e d4e3 b5bd
000000d0: 7e95 cf3e ab0a 10be d6e9 31bd c91c 92be
000000e0: f1ea 1b3e dabd 3d3d 8a3c 01be ac98 1b3e
000000f0: a0c2 573e 56ba e63e 3a37 b53d eb72 41bd

fc4.weight f4 [4, 64]
0.33278996 -0.07703654 0.16367573 0.31416655 0.42161658 0.06435894 0.27646175 -0.22157611
0.18404678 0.22621453 0.0021303697 0.22267602 -0.5432327 0.037932355 0.1431098 -0.36447406
-0.10021547 0.14899857 -0.2971741 0.18237612 0.24051018 0.22048606 -0.26842794 0.14568087
-0.029181158 -0.10644137 -0.20263728 0.018353721 -0.099951096 0.10550301 0.19366834 -0.30889994
0.1302031 -0.27642354 -0.18687946 0.022533296 0.2614159 0.025059057 -0.23303108 0.25633788
-0.106261514 0.07282421 0.027858218 0.008399521 0.20216697 0.21941969 -0.26152438 0.4825094
0.20720662 0.17262708 0.12906665 -0.16995631 0.12788863 -0.0100034615 0.15026818 -0.14265184
0.21835798 0.2549639 -0.084388025 0.11103644 0.3229055 0.1543605 -0.7857951 -0.37808424
0.34135264 -0.0037404294 0.09071424 -0.18331923 0.2961579 0.20595269 0.12421448 0.15615803
0.019211419 0.2012204 0.023247525 0.13057871 -0.017147155 0.08061622 -0.64170784 0.00992131
-0.22412331 0.07390532 -0.16796616 0.2437158 0.08122762 0.28591377 -0.13920103 0.25007382
0.09619827 -0.11140893 -0.34104502 -0.024027705 -0.08420914 0.34512714 0.18598188 -0.2198446
0.45593813 0.10685054 -0.075909875 0.013201891 0.29597077 -0.109745786 -0.21984756 0.27171522
-0.09147138 0.06525774 0.3263572 0.06984166 0.13282889 0.12341932 -0.16646853 0.07468696
0.089992605 0.27948076 0.24231842 -0.32835135 0.18036158 -0.20466653 -0.10471475 -0.11466791
0.26205337 0.2464365 -0.38443354 0.1734492 0.23692524 0.19799264 0.12414952 0.08690581
0.28942755 -0.43347824 0.14852062 0.059156332 0.27350745 -0.7215018 0.25852767 -0.33720127
0.1980183 0.13835879 -0.013586226 0.2028753 -0.45575082 -0.32737875 0.13902937 -0.57490057
-0.09589164 0.24891257 0.16866899 0.22720854 0.47742137 0.2349538 -0.1172802 0.18152589
0.2506385 -0.0032489288 0.21590644 -0.18443331 0.0016949339 -0.2634514 0.2463575 -0.0775287
0.5460931 0.26061806 0.033264518 -0.033509403 0.12181381 0.035870194 -0.38210583 0.1710326
-0.070548005 0.12980168 0.24243262 0.23862319 0.21293348 0.193741 -0.24977374 -0.23836222
0.52767825 0.038297754 0.19941215 -0.018720673 0.18239953 -0.3240921 0.09788272 -0.03206757
-0.3014595 0.38134006 -0.18520163 0.020201057 0.07870253 0.10673345 -0.086384416 -0.22927387
0.25858086 0.14818294 0.19480191 -0.29364446 0.42263702 -0.12998112 0.27359462 -0.37866753
0.032584198 0.11190525 0.07351176 0.24343807 -0.2470336 -0.122069605 -0.33088058 -0.0058093537
0.08684965 0.21439207 0.2365055 0.057601828 0.23985428 0.21482055 -0.10703244 0.23375276
0.24897514 0.059183728 0.074218 0.12081847 0.27285147 0.036127612 0.17467697 0.19422677
-0.15331736 0.22682652 -0.6012794 -0.08154613 -0.12212157 -0.05840389 -0.24668173 0.36562604
-0.107913956 -0.046403874 -0.16502036 0.18833756 0.06864321 0.17732812 -0.25480193 0.11492438
0.28574273 0.19376567 0.14954138 -0.40696672 0.2844315 -0.21404417 -0.76593524 -0.38209847
0.2634377 0.25130063 0.4914865 0.26164344 -0.057112128 0.20521475 0.10290604 0.18763751
00000000: 7263 aa3e 55c5 9dbd 9c9a 273e 70da a03e
00000010: 21de d73e 9fce 833d 658c 8d3e d9e4 62be
00000020: c276 3c3e c8a4 673e ac9d 0b3b 2f05 643e
00000030: 4c11 0bbf f55e 1b3d 608b 123e 589c babe
00000040: c53d cdbd 1593 183e 3427 98be cec0 3a3e
00000050: 4d48 763e 19c7 613e 636f 89be 5e2d 153e
00000060: 530d efbc effd d9bd 2680 4fbe 8b5a 963c
00000070: 29b3 ccbd f611 d83d fe50 463e 2228 9ebe
00000080: f653 053e 6387 8dbe 545d 3fbe bf97 b83c
00000090: 4ed8 853e a748 cd3c b39f 6ebe b83e 833e
000000a0: a39f d9bd dc24 953d eb36 e43c 259e 093c
000000b0: dc04 4f3e 8eaf 603e 86e6 85be 790b f73e
000000c0: f92d 543e 27c5 303e 0c2a 043e 0709 2ebe
000000d0: 3df5 023e 8fe5 23bc e7df 193e 5313 12be
000000e0: 3c99 5f3e a18a 823e a1d3 acbd 1367 e33d
000000f0: df53 a53e ae10 1e3e de29 49bf 4294 c1be
00000100: c6c5 ae3e fe21 75bb 63c8 b93d 09b8 3bbe
00000110: 02a2 973e 43e5 523e 2964 fe3d e4e7 1f3e
00000120: 4461 9d3c b80c 4e3e 9871 be3c 6db6 053e
00000130: 3178 8cbc 1e1a a53d f746 24bf fd8c 223c
00000140: 9580 65be ac5b 973d 52ff 2bbe a290 793e
00000150: ab5a a63d 4a63 923e b78a 0ebe ad09 803e
00000160: 9903 c53d 5d2a e4bd 749d aebe c0d5 c4bc
00000170: d775 acbd 81b4 b03e 0972 3e3e f11e 61be
00000180: b970 e93e 75d4 da3d a376 9bbd bf4c 583c
00000190: 7b89 973e 66c2 e0bd b81f 61be 421e 8b3e
000001a0: 5955 bbbd daa5 853d 4a18 a73e 2509 8f3d
000001b0: 4c04 083e 45c3 fc3d ba76 2abe 7af5 983d
000001c0: 0b4e b83d 1a18 8f3e 5222 783e ab1d a8be
000001d0: b5b0 383e 1a94 51be b074 d6bd 02d7 eabd
000001e0: dc2b 863e da59 7c3e 79d4 c4be ab9c 313e
000001f0: 889c 723e 95be 4a3e 1b42 fe3d acfb b13d
00000200: d92f 943e dcf0 ddbe ca15 183e e94d 723d
00000210: 2b09 8c3e 58b4 38bf bd5d 843e a5a5 acbe
00000220: 4fc5 4a3e edad 0d3e c398 5ebc 8bbe 4f3e
00000230: 2c58 e9be 309e a7be b75d 0e3e af2c 13bf
00000240: d662 c4bd f0e2 7e3e 90b7 2c3e 5ba9 683e
00000250: 9370 f43e bb97 703e 9a30 f0bd ece1 393e
00000260: b153 803e fbeb 54bb 9416 5d3e 16dc 3cbe
00000270: 8b28 de3a 1ae3 86be 2445 7c3e 5ec7 9ebd
00000280: c2cc 0b3f bb6f 853e 6040 083d 2841 09bd
00000290: 8579 f93d a0ec 123d 60a3 c3be 2b23 2f3e
000002a0: 797b 90bd bbea 043e 4240 783e a359 743e
000002b0: 3c0b 5a3e 0a64 463e b0c4 7fbe 3a15 74be
000002c0: ec15 073f 1bde 1c3d b332 4c3e 195c 99bc
000002d0: f1c6 3a3e 66ef a5be bc76 c83d 4959 03bd
000002e0: e658 9abe 013f c33e 7fa5 3dbe b07c a53c
000002f0: cb2e a13d 1197 da3d 50ea b0bd c5c6 6abe
00000300: b664 843e 45bd 173e 277a 473e 9158 96be
00000310: e163 d83e c519 05be 9814 8c3e b6e0 c1be
00000320: 0277 053d 942e e53d 558d 963d d447 793e
00000330: 60f6 7cbe a1ff f9bd 2e69 a9be 645c bebb
00000340: 3bde b13d 9889 5b3e 7f2e 723e e5ef 6b3d
00000350: 5c9c 753e ebf9 5b3e d333 dbbd e25c 6f3e
00000360: 57f3 7e3e a36a 723d 9bff 973d ad6f f73d
00000370: 30b3 8b3e 8cfa 133d 85de 323e 62e3 463e
00000380: 3aff 1cbe 3645 683e 72ed 19bf a801 a7bd
00000390: e01a fabd eb38 6fbd 239a 7cbe 5633 bb3e
000003a0: fe01 ddbd fd11 3ebd 19fb 28be 90db 403e
000003b0: d094 8c3d 8195 353e 6675 82be 795d eb3d
000003c0: df4c 923e 826a 463e 6021 193e f15d d0be
000003d0: 01a1 913e 652e 5bbe 5514 44bf 69a2 c3be
000003e0: 4ee1 863e 7aaa 803e 1ea4 fb3e 21f6 853e
000003f0: 68ee 69bd d123 523e 67c0 d23d 0c24 403e

fc4.bias f4 [4]
0.29191193 0.27192506 0.32990637 0.2640062
00000000: 7b75 953e c339 8b3e 7de9 a83e d22b 873e
