checkpoint.pth (torch, 80047 bytes, 8 tensors)

fc1.weight f4 [64, 37]
000000 5c 2a f0 bd 42 dc 0b 3d ab 9e 70 bd 0e d7 48 3d
       -0.117268294 0.0341456 -0.058745068 0.049033217
000010 fb 20 79 bd 89 48 22 3c b7 2f 5f 3d 8b fb ec 3d
       -0.06082247 0.009904989 0.054488864 0.115714155
000020 9e 11 bc bc 7c ce 6d bb 2c 3e d4 bd 31 3b 66 3d
       -0.02295762 -0.0036286404 -0.10363421 0.056208793
000030 78 61 5b be 8f a9 20 3c 71 3b 49 be a2 3c 05 3e
       -0.214239 0.009806051 -0.19651581 0.13011411
000040 de 9b d0 bc 89 97 f8 3c b9 0e ae bb b8 4d 87 be
       -0.025464948 0.030345695 -0.0053118137 -0.26426482
000050 3f 98 20 3a 57 f3 27 3e 61 28 4e 3d 5d 96 61 bd
       0.0006126202 0.1640142 0.050331477 -0.05507504
000060 69 b5 77 3d 14 0d 6c 3d d8 3c ce 3c df 9e 20 be
       0.06047574 0.05762966 0.025175497 -0.15685605
000070 80 3c 73 3d 04 fb 65 be 08 9a 92 be 1f 04 0f 3e
       0.05938387 -0.22459036 -0.28633142 0.13966416
000080 4b af 46 bc 5b e3 a2 3d 74 7c a5 bd 60 8f 47 be
       -0.012126754 0.07953521 -0.08080378 -0.19488287
000090 13 ec c6 bd a1 e4 ac 3d 5a 75 8c bd bb d1 02 3e
       -0.09712996 0.08442045 -0.068583205 0.12775318
0000a0 28 c4 91 bd b5 0f d7 be 06 51 63 be a8 b7 79 be
       -0.07117492 -0.4200417 -0.22198877 -0.24386466
0000b0 9e 6c de bc f2 01 b3 be f1 a9 90 3e ff 0f 24 3d
       -0.027151402 -0.34962422 0.28254655 0.040054318
0000c0 a3 ca 5d be 27 9b 10 bd 22 be cf 3d 97 d4 b0 3d
       -0.21659331 -0.035304215 0.10143687 0.08634298
0000d0 06 69 77 bc 63 ae 8a be 96 61 3d 3e 64 1c c0 be
       -0.015100723 -0.27086172 0.18494257 -0.3752166
0000e0 c7 42 cc be 54 1d 7f be b6 b3 fd be 36 69 82 bd
       -0.39894697 -0.24913532 -0.4955117 -0.06367724
0000f0 7a aa 04 3e b0 de b2 bc 40 7c 6e be 17 67 ee bd
       0.12955657 -0.021834701 -0.23289585 -0.116407566
000100 d0 55 16 3e 94 69 21 be f1 2b a1 bd 03 04 c9 3d
       0.14681172 -0.15762931 -0.07869709 0.09815218
000110 cb 61 86 be 7e 39 3d 3e 12 5b bf be e3 88 58 3d
       -0.26246485 0.18478963 -0.3737417 0.05286492
000120 6c 0b 3e bb be 0e 18 3d dd a2 90 3e e3 fc d0 bd
       -0.0028998507 0.037123434 0.28249255 -0.10204484
000130 3d 4d 29 3d 98 a6 bb bd d5 08 8f be 42 ce 7c be
       0.041333426 -0.091626346 -0.27936426 -0.24688056
000140 3f b5 81 be 57 ee 2e 3e 2e 18 20 3e 3b 45 28 be
       -0.25333592 0.17083107 0.15634224 -0.1643266
000150 4c d5 9c 3c a1 65 50 3b a4 b7 a5 bd 7b c5 2b be
       0.019144677 0.0031798857 -0.08091667 -0.16774552
000160 24 25 18 3e 47 30 63 be 46 d4 0a bd fb 30 1e 3e
       0.14857918 -0.22186385 -0.033893846 0.15448372
000170 26 c4 b0 3d 7d 23 11 3e 95 6c 91 bd 08 f4 64 be
       0.08631162 0.14173694 -0.071007885 -0.22358716
000180 6c 92 01 3e 2b b4 17 bd fb 8e eb bd ce 06 3a be
       0.12653512 -0.037037056 -0.11501881 -0.18166658
000190 da a4 82 3e 92 5c ed 3d 2e 24 d2 be 99 ea 64 bd
       0.25516397 0.11589922 -0.41043228 -0.055887792
0001a0 95 c3 ca be 69 f8 53 bb a8 a9 39 be 02 76 57 be
       -0.39602342 -0.003234411 -0.18131125 -0.2104111
0001b0 6d ed cb 3d 76 ce 41 3e ca 9b bb bd 12 6c 73 b8
       0.09957395 0.18926415 -0.09160574 -5.8036363e-05
0001c0 aa 7e 1a 3e 4e fd d1 3d 53 e6 c5 3d 3e dd 61 3d
       0.15087381 0.10253392 0.096630715 0.055142634
0001d0 99 32 6f be a5 27 d1 3d e8 7c f7 3b 06 d1 30 3e
       -0.23359145 0.1021264 0.007552732 0.17267236
0001e0 5c 86 af 3e 0b f4 4e 3d 8a 94 ed bd e2 7d 4a 3e
       0.34282196 0.050525706 -0.11600597 0.19774583
0001f0 21 e1 9f be 8f e2 3b be f8 e2 ed bc 7e 8a cd 3c
       -0.31226447 -0.18348144 -0.029038891 0.025090452
000200 33 7d 25 bd 96 6f 14 bf 15 7d 8e be 8d 2a 00 3e
       -0.040402602 -0.57982767 -0.27829805 0.12516232
000210 4e 7c 62 bd 57 ac a2 bd e3 fa 76 3d b0 c1 b9 bc
       -0.055294327 -0.079430275 0.060297858 -0.022675365
000220 9d 4f 0c 3e 9d 87 52 be 82 fc e7 3c 73 90 8a 3e
       0.13702245 -0.20559545 0.028318647 0.2706333
000230 2d d5 1c be 79 01 38 3e ef 63 1c 3e 33 86 82 3d
       -0.15315695 0.17969312 0.15272497 0.06373253
000240 aa 03 57 be 07 1e 8d bd b8 ac 43 3e fa 04 8a bc
       -0.20997491 -0.06890493 0.19108856 -0.016848076
000250 f9 ce 82 3d 64 9c 96 be b3 ed 89 be 5f 71 1a be
       0.06387133 -0.29416192 -0.26939163 -0.1508231
000260 71 89 54 be ca 7c ea 3c 73 07 0b 3e 3c 43 17 be
       -0.20755555 0.028623957 0.1357706 -0.14771742
000270 58 66 84 3d 5f b6 cb bd 7c de d1 bd a9 9f a8 3c
       0.06464833 -0.09946894 -0.10247514 0.020583944
000280 ba a4 6e 3c 6d b4 8e be 22 2a c2 3d 73 e8 ff bd
       0.014565641 -0.2787203 0.094806924 -0.12495508
000290 6c 4c 6f be 53 af 5f 3d 7e 09 50 be 2c 29 36 be
       -0.23368996 0.05461056 -0.20316121 -0.17789143
0002a0 af 00 57 be 10 96 fc bd 5a 1a 40 3e 3c f6 27 3d
       -0.20996355 -0.1233331 0.18760052 0.04100631
0002b0 1b e2 90 3e 81 76 43 be fb 97 8b be af f9 20 3e
       0.28297505 -0.19088174 -0.2726439 0.15720247
0002c0 4a b3 da 3e fd 00 6e 3d eb 72 98 3d 33 1a 66 be
       0.42714912 0.05810641 0.07443794 -0.22470932
0002d0 ec 82 4d 3c 70 b9 f0 3c bb 15 b9 3e e6 00 6b bd
       0.012543421 0.029385298 0.36149392 -0.057373904
0002e0 3f ce 3d 3d 3d 95 f6 3d b2 ec 60 bd 35 bb 0f bd
       0.04633927 0.12040184 -0.05491323 -0.035090644
0002f0 ed 75 14 be 05 95 3b 3d 67 60 8a 3e dc ec aa bd
       -0.1449811 0.045796413 0.27026674 -0.083459586
000300 54 fa 66 be 20 bb 05 be 33 89 4d bf a3 56 6d bd
       -0.2255643 -0.13059664 -0.80287474 -0.05794395
000310 e3 eb dd bc bf 83 4c 3d d0 6b 0f be 0d 8a 20 bd
       -0.027090019 0.04993033 -0.14005971 -0.039194155
000320 8f 8f bd 3d 2c df d0 3b 6c 34 58 be 70 4b 37 bd
       0.09255897 0.0063742604 -0.21113747 -0.044749677
000330 79 54 51 be d9 b3 18 3e 95 ba 5e 3d cf d9 3d 3c
       -0.2044238 0.14912356 0.054377157 0.011587574
000340 60 5b bf 3a 2b df ee 3d 50 51 af 3d 12 a1 4a 3d
       0.0014599375 0.1166366 0.08560431 0.049470015
000350 00 78 c3 bd 3a 16 08 be d3 9f d1 bd 05 60 4b 3d
       -0.095443726 -0.13289729 -0.10235562 0.04965212
000360 fb 15 bf bd 9d f8 b1 bd 1f 27 f8 3d ca 2c 19 be
       -0.09330364 -0.08689997 0.12116837 -0.14958492
000370 be 9b 09 bd 59 1b ab 3d de 52 52 3e d0 31 ab bd
       -0.033595793 0.083548255 0.20539424 -0.0835911
000380 4c 60 b1 bd a2 eb ae 3d dd 7a fa bd ac 45 6c be
       -0.08660945 0.08541037 -0.122304656 -0.23073453
000390 4c c0 f7 3c a8 dd 49 3e 2b 2c fa 3c fa 19 62 3e
       0.030243061 0.19713461 0.030538639 0.22080222
0003a0 09 71 0a bf 7a 20 7b 3e 64 3b ad 3e c7 c8 85 3e
       -0.5407873 0.24524108 0.33834374 0.26129743
0003b0 11 db d7 be a6 79 fd bd 4a 08 6b 3d 81 78 34 3e
       -0.42159322 -0.12376718 0.057380952 0.17624094
0003c0 fc 22 39 3e 82 40 18 3e ce dd 62 be 39 1a 3a 3e
       0.18079752 0.14868358 -0.22154924 0.18174066
0003d0 13 c1 54 3e c8 ad 69 bd aa 29 8e bd 0e f6 7c be
       0.20776777 -0.057050496 -0.069415405 -0.24703237
0003e0 df 79 dd 3b d6 c8 00 3e 43 0e d2 bd 97 5a 6c bd
       0.006758913 0.12576613 -0.102566265 -0.05770358
0003f0 30 a0 8f 3c 32 ac 00 3e b0 45 1e 3d c3 c7 ae bd
       0.017532438 0.12565687 0.038640678 -0.08534195

fc1.bias f4 [64]
000000 21 dc 0f 3e ea c1 93 bd 68 1a 31 be c0 5b d5 bd
       0.14048816 -0.072147205 -0.1729523 -0.104178905
000010 e7 e6 d7 3d c8 3f ef bc 86 21 0f 3d 49 95 88 3d
       0.10542088 -0.029205218 0.03494408 0.06669099
000020 61 37 10 bd 49 21 ec bd af 77 b6 3d 21 ec e0 3d
       -0.035209063 -0.11529786 0.089095466 0.10982538
000030 28 c2 44 3e 41 29 11 3e 30 94 4c bd fa 05 68 bd
       0.1921469 0.14175893 -0.04994601 -0.056646325
000040 6d 18 e6 bb d6 e8 3a bd 68 66 59 3d 87 b8 2f be
       -0.0070219547 -0.045632206 0.053076178 -0.17160235
000050 23 3a f5 bd e8 31 bb 3c 10 62 80 3b d8 8e c7 bd
       -0.11973979 0.022850946 0.00391794 -0.09744042
000060 3d 96 bf bd b1 10 6e 3e 60 44 80 bc 8f 53 1f be
       -0.093548276 0.23248555 -0.015657604 -0.15559219
000070 e4 90 14 3e 1b e1 c8 3d e2 64 a7 bd e5 9d 3d be
       0.14508396 0.098085605 -0.08173539 -0.18517263
000080 55 7c 22 3e 89 d2 e9 bb bc ff fd bd 38 05 42 3d
       0.15867741 -0.0071356934 -0.12402293 0.04736826
000090 af cf 5d bd 43 54 96 3c 5f 95 f5 bc ae 49 cf bd
       -0.05415314 0.018350726 -0.029978452 -0.10121475
0000a0 fc 7e 39 bd 68 0c 2b bc c8 11 0b be 7a 26 0f 3e
       -0.045287117 -0.01043997 -0.13581002 0.13979521
0000b0 1d f3 b2 3c 3c d9 ba bd f9 48 e3 3c 4b f8 58 be
       0.021844441 -0.091234654 0.027744757 -0.21188466
0000c0 9f 18 bc bd 02 f1 28 3d 33 dc e9 bd ca 11 f9 3c
       -0.091843836 0.041245468 -0.11418953 0.03040399
0000d0 8f a7 8c bd 73 94 49 bc fe bb 1f be ad 64 f6 3b
       -0.06867897 -0.012303459 -0.15599057 0.0075193257
0000e0 de bf ad 3d 4c 47 dd bc 3c a9 26 bd 83 c7 09 be
       0.084838614 -0.027011536 -0.04068874 -0.13455014
0000f0 0f f4 77 bc 24 aa 8b 3d 84 3b 22 3d d4 b6 9c 3d
       -0.015133872 0.06819561 0.03960754 0.07652059

fc2.weight f4 [128, 64]
000000 b2 28 49 bd c6 88 15 3e 2f 4e 57 be 6a ee bf bd
       -0.049111076 0.14602956 -0.21025918 -0.09371646
000010 85 97 02 bf 57 3e cf be 31 c4 48 bd 6d 60 35 be
       -0.5101245 -0.4047725 -0.049015228 -0.17712565
000020 6c e9 6e be c2 8c 87 3c 09 31 89 bd e4 16 d9 bd
       -0.23331231 0.01654661 -0.06698806 -0.10600069
000030 52 85 94 be 50 04 92 3e 50 2c c9 be 8e dc 22 bd
       -0.29007965 0.28518915 -0.3929162 -0.03976112
000040 e6 e4 ae bd b4 5b 1a 3c dd c5 d1 3d c4 1d 4f 3e
       -0.08539753 0.009421278 0.102428176 0.20226198
000050 4c 74 b5 be 3b 58 70 bd d9 63 1e bd fe ea fd 3d
       -0.3544029 -0.058677893 -0.03866944 0.12398337
000060 ef 40 75 be e6 41 97 be 6f 7a 5c 3e 7c 63 e1 bd
       -0.23950551 -0.29542464 0.2153108 -0.11005303
000070 17 fe f4 3d 31 ed b4 3c bf d9 92 3e 41 2f 42 bd
       0.11962526 0.022085758 0.28681752 -0.047408346
000080 78 5c 20 3e 80 55 a4 3d b4 f2 c0 3c ba bb b4 3d
       0.15660274 0.0802412 0.02355323 0.088248685
000090 34 d9 e1 bd c4 c6 42 3e a3 4c 19 bb 7a 74 0a bd
       -0.11027756 0.19021136 -0.0023391626 -0.033802487
0000a0 06 dc d2 be c0 06 48 be 15 ce e5 bd 7f 41 34 3d
       -0.4118349 -0.19533825 -0.11220948 0.044007774
0000b0 09 1a 99 3d f4 82 bc be 43 b4 93 be ec 83 c1 3d
       0.07475669 -0.3681866 -0.28848466 0.0944899
0000c0 b0 be 1d bd 4e 61 1d be af be 70 be 60 27 52 bd
       -0.038511932 -0.1536915 -0.2351024 -0.051307082
0000d0 7d 82 b8 be a0 c5 89 3d 6e 01 91 3d 23 fd c5 be
       -0.36037055 0.06727147 0.07080351 -0.3866969
0000e0 f6 a4 c5 3c 51 c4 30 be 49 fe c2 be ab 2b 22 3d
       0.024126511 -0.17262389 -0.3808463 0.039592426
0000f0 6d f8 0a bc 5e 55 20 3e 10 05 6b bc 23 9d 69 bd
       -0.008482081 0.15657565 -0.014344469 -0.057034623
000100 8c 9b 51 3d 7d bf 3d 3e b8 6d d6 be 9b 88 5b 3d
       0.05117373 0.18530078 -0.41880584 0.053597074
000110 d6 1d 5a 3e a2 e2 ba bc 48 da 88 be 64 ba c0 3d
       0.21300444 -0.022813145 -0.26729035 0.09410551
000120 09 28 8e be eb 0e 8a be a4 df 2d bc 7a 4b 38 3e
       -0.2776492 -0.26964507 -0.010612402 0.17997542
000130 39 f4 10 be fe 89 32 3d 94 2c 0e be ea ad 88 3c
       -0.14155664 0.04358863 -0.13884193 0.016684491
000140 9c 21 66 3e 20 2f 91 3d b5 2c 25 bd 71 a2 13 be
       0.22473758 0.070890665 -0.04032584 -0.14417435
000150 7d d1 9c 3c 42 17 ec bd 47 65 c5 bd d2 3f 70 3d
       0.01914286 -0.115278736 -0.09638458 0.058654614
000160 30 e1 0e be 5e 3e 64 bd 9d fa 3b bd db d0 69 be
       -0.1395309 -0.05572354 -0.0458933 -0.22833578
000170 01 98 6c 3e ab 63 80 be a4 f0 82 bd 36 3a 3f be
       0.2310486 -0.2507604 -0.06393555 -0.1867455
000180 4b 70 84 3d 94 ad 27 be 7f 76 b2 bc d9 b4 7e be
       0.06466731 -0.16374809 -0.021785019 -0.24873675
000190 92 26 47 bd 00 c8 06 3e 21 2e f5 3d a2 37 40 bd
       -0.048620768 0.13162231 0.11971689 -0.046928056
0001a0 66 d0 4b be c6 5b 43 be 18 fa d0 3d 2e 25 f7 bd
       -0.19903716 -0.19077978 0.102039516 -0.12067638
0001b0 4b e3 d8 bd 87 dc 09 be da 2d 8d be c1 41 92 bc
       -0.10590228 -0.13463031 -0.27574044 -0.01785362
0001c0 5a d7 8a be a0 f2 d3 be 82 45 bf bc 87 fc 80 3d
       -0.27117425 -0.41396046 -0.023348574 0.06298166
0001d0 20 b1 37 bc 91 0d d9 bd f3 c7 bc 3d 8b 14 a2 3d
       -0.0112116635 -0.10598291 0.09217825 0.079140745
0001e0 fc 1a 5d 3a 5b 67 96 bd 7e 5d 0f 3e cb 18 3a 3d
       0.0008434502 -0.07343932 0.14000508 0.0454338
0001f0 b9 fc 91 be 9c bb ed 3d 3c 8f 91 3c a5 ab 4b be
       -0.28513125 0.11608049 0.017768495 -0.19889696
000200 31 f9 b0 bd fe 39 8b be e6 41 ac 3d f9 65 30 be
       -0.086412795 -0.27192682 0.08411007 -0.172264
000210 de 10 02 bd 12 1c 13 bc 40 44 09 be 2b 7e 01 bd
       -0.031754367 -0.00897886 -0.13404942 -0.031614464
000220 e3 88 94 3d 82 a7 59 bc 74 e7 23 3d 91 c0 1a bd
       0.072526716 -0.013284566 0.040015653 -0.037781302
000230 c0 b9 08 3e 8d 88 d6 3d 6d 13 7e 3c 94 34 ab bd
       0.13352108 0.10475264 0.015507561 -0.08359638
000240 04 da 5f be 96 bb 4b bd eb ca b2 3d dd 23 26 bd
       -0.2186051 -0.049739443 0.0873011 -0.040561546
000250 aa 7e 3b be 95 48 f3 3c f0 4c 96 3c bb 9d 31 bc
       -0.18310037 0.029697696 0.018347234 -0.0108408285
000260 22 09 06 be c0 6f e1 3d c5 f2 0a 3e 7f 3b 67 bc
       -0.13089421 0.11007643 0.13569172 -0.014113306
000270 8f b7 78 3d 89 2f 9e 3d aa fe 37 bd f5 a5 d5 3c
       0.06072193 0.0772391 -0.0449206 0.026080111
000280 41 3c 0b bd ed 93 2d bc b2 b2 d5 bd 76 79 55 3e
       -0.03399301 -0.01059435 -0.10434474 0.20847115
000290 59 60 f1 3d 19 e0 80 3d 76 80 6e 3e dc 4d 33 be
       0.11785955 0.06292743 0.23291191 -0.1751017
0002a0 9a 4e 52 3e 7f 40 8f be 33 98 2c be a6 10 90 be
       0.20537797 -0.27978894 -0.16854934 -0.28137702
0002b0 d1 be 7c 3b 8c 1b 51 3c 02 4f 65 3c 5b 5e 28 be
       0.0038565884 0.012762915 0.013995888 -0.16442244
0002c0 84 59 95 bd fc 9b 21 be 60 e2 b0 bd d4 46 2f bd
       -0.072924644 -0.1578216 -0.086369276 -0.042792156
0002d0 32 68 84 be 04 73 b9 bc 4c 16 7e be 40 ae 3b be
       -0.25860745 -0.022637852 -0.24813193 -0.1832819
0002e0 32 99 bf bd 7c 7d 92 bb 1e 25 75 3d a4 49 f7 3d
       -0.093553916 -0.0044705253 0.05984985 0.12074593
0002f0 21 b6 bc bd e3 9a ac 3c a5 15 2e 3e 2a 4a 9f bd
       -0.09214426 0.02106995 0.17000444 -0.077778175
000300 5c 67 fd bc 95 d9 62 bd ae 02 69 3d 08 d1 11 be
       -0.030933075 -0.055383284 0.05688732 -0.14239895
000310 96 ed 12 3d c7 ae ab 3d 75 a9 c7 bd 3f de 7d bd
       0.03587111 0.083829455 -0.09749118 -0.06197953
000320 ce 0e 05 bd 33 fe d4 3d 9d 12 02 be 70 bf 86 3e
       -0.032484822 0.10400047 -0.12702413 0.2631793
000330 dd b1 bb bd 7d 19 a3 3e ab 77 87 3d 90 5f 9b bc
       -0.09164784 0.31855384 0.06614622 -0.018966466
000340 5c 99 21 bd 56 12 60 3d 26 ef a3 3c db 6a 53 be
       -0.039452896 0.054704987 0.020011496 -0.20646231
000350 40 ad 47 bb 46 dc c0 3d d3 59 ce 3d 22 a0 a9 3c
       -0.0030468255 0.09417014 0.10075726 0.02070624
000360 8a 0f 96 3c d2 dc 0a 3e a0 d4 a6 3d ad 6c b7 3d
       0.018317956 0.13560799 0.08146024 0.08956275
000370 34 1f 78 3e 86 37 b0 bb c7 7b 06 be 96 ab e8 bc
       0.24230653 -0.0053777127 -0.13133155 -0.028402131
000380 61 99 25 be 19 da 77 bd 9a 7e 14 be 84 75 16 3e
       -0.1617179 -0.06051073 -0.1450142 0.14693266
000390 03 3b ec bd 5d fd 90 3d af 43 f0 3d 5d e0 a0 bd
       -0.11534693 0.07079575 0.117316596 -0.07855294
0003a0 ac eb 65 3d bb e9 06 3e f0 4e 1e be 0d f0 45 be
       0.056132957 0.13175099 -0.154598 -0.19329853
0003b0 e4 3e 9a bd b1 02 e9 bc b4 c1 13 3d 2d 21 17 3b
       -0.07531527 -0.028443666 0.0360734 0.0023060546
0003c0 06 64 97 3d 78 b4 90 3c 95 4b c0 bd 1b 76 8c 3d
       0.07392125 0.01766418 -0.09389416 0.06858464
0003d0 fc 8f fa 3d 53 2e a7 3d ce 47 d2 3c 13 e7 c9 3c
       0.12234494 0.081631325 0.025669005 0.024646318
0003e0 84 b0 d7 bd 32 2d 4d bc fc f1 10 3e 70 ac 77 3d
       -0.105317146 -0.012522982 0.1415481 0.060467184
0003f0 ba 9f b3 be c6 c2 a8 bc f4 2e 37 be 90 20 40 bd
       -0.350828 -0.020600688 -0.17889005 -0.046906054

fc2.bias f4 [128]
000000 e3 cf a3 3d 28 72 69 3b 11 c6 5f 3d 75 ae 5d bd
       0.079986356 0.003562102 0.05463225 -0.054121453
000010 a7 9d c3 3d 96 3f 09 3e 2e e1 46 3d 53 46 3c 3d
       0.09551554 0.13403162 0.04855459 0.045965504
000020 dd 55 fb 3c c4 63 03 3e f1 42 8c 3d 52 e3 c2 bc
       0.030680591 0.12831026 0.068487056 -0.023790035
000030 38 4a 13 3c 56 b5 fe bd 0d bf 5c 3a 2f 89 08 be
       0.008989863 -0.12436931 0.0008420803 -0.13333581
000040 d5 32 37 3b 3a a1 cc bc 13 29 0c 3e 38 89 87 bd
       0.0027953882 -0.024979223 0.13687544 -0.06617969
000050 64 04 d0 3b 21 ba 0f bc 55 d4 74 bd 0e e3 3e bd
       0.0063481797 -0.008772404 -0.059772808 -0.046603255
000060 62 33 d9 bd ac 76 db bd ad 24 84 3d ae 86 5d 3c
       -0.106055036 -0.10715994 0.06452308 0.01352088
000070 07 d5 7d 3d b0 08 a6 3d 98 55 37 bd 99 52 16 bc
       0.061970737 0.08107126 -0.044759363 -0.009174966
000080 f6 73 a5 bd 82 f3 d9 3d 23 28 68 3d 5b f1 85 3d
       -0.080787584 0.106421486 0.056678902 0.065401755
000090 4a 51 23 bd 2a 55 3f bd 1e 14 0f be c4 0e fb bd
       -0.039872445 -0.04671208 -0.13972518 -0.12258676
0000a0 d0 c0 b5 3d 83 7b 3a 3d 92 d6 c5 3d 4d 2c 22 3d
       0.08874667 0.045527946 0.09660067 0.03959303
0000b0 7e 0b ff bd c4 50 a9 3d 17 93 ad bd 66 12 c2 bd
       -0.12453364 0.08267358 -0.08475321 -0.094761655
0000c0 cc e1 81 bc 0f 8f 9f bd 00 47 c8 3d 04 25 19 be
       -0.015854739 -0.07790958 0.09779167 -0.14955527
0000d0 2a 36 34 3e ac 3a 92 bd 52 e3 e0 3c 13 8f ce 3d
       0.17598787 -0.07140097 0.027452145 0.10085883
0000e0 fc 95 fe bc 87 3d c6 bd 68 ff 12 3e f0 e7 48 bd
       -0.031077377 -0.09679704 0.14355242 -0.049049318
0000f0 15 ff 1f bb 89 2f 95 bb b1 6c b0 3c d4 41 f8 3d
       -0.0024413515 -0.004552786 0.021536203 0.12121931
000100 1d 91 84 3c b2 be db bb 1e bc f9 3b 36 4b df bd
       0.016182477 -0.0067060823 0.0076213023 -0.10903017
000110 22 e1 3a 3d 62 35 12 3d 57 92 ca bd 85 71 de 3d
       0.04562486 0.03569544 -0.09891193 0.10861496
000120 f8 df c9 bd e0 3d 6e 3d 22 5b 88 bc 16 18 96 bd
       -0.09857172 0.058164477 -0.016645018 -0.07328813
000130 43 39 ce 3d 8f 76 7e bd 36 0a 08 bd 04 b7 3c bd
       0.100695156 -0.062124785 -0.033212863 -0.046072975
000140 b3 95 1b be 26 9b 48 3d 49 f0 87 bd c6 65 72 3d
       -0.15193824 0.048976086 -0.06637628 0.05917909
000150 d2 ff 6f bc b3 8b d7 bb 97 40 6c bc bb 53 10 bc
       -0.014648395 -0.0065779327 -0.014419696 -0.008809025
000160 c3 6a b6 bd 71 17 2e bd 53 0f 78 bd 86 f2 02 3e
       -0.08907082 -0.042502824 -0.06056149 0.12787828
000170 9b 59 16 3d f1 0f 5f 3d cb 2e 0d be df d7 27 be
       0.03670655 0.054458562 -0.13787381 -0.16390942
000180 0b 03 1d bd 73 49 4a 3d 93 01 ee 3d de cc d7 bd
       -0.03833298 0.049386453 0.11621394 -0.10537122
000190 b1 38 11 be ad bf a2 3d 15 8f 68 3d 28 94 d0 bd
       -0.14181782 0.079467155 0.05677708 -0.101845086
0001a0 58 82 07 bd 63 f2 87 3d aa 83 a8 3c c1 51 51 3b
       -0.03308329 0.066380285 0.020570595 0.0031939598
0001b0 30 f6 aa bd af 2c 1a 3d b9 9e ac bd c4 89 54 bd
       -0.08347738 0.03764027 -0.084287114 -0.051889196
0001c0 e3 fa e8 bd f5 ee 17 3e 1f ab b6 bc ba 2f 94 3d
       -0.11375978 0.14837249 -0.022298394 0.072356656
0001d0 f8 cd 14 be d7 cf 99 3d 14 64 ca 3d 61 97 1a 3e
       -0.14531696 0.075103454 0.0988237 0.15096809
0001e0 47 ce 97 3c 4c ab 0c bd 5b 42 3c 3d b5 16 c7 bd
       0.018530978 -0.03434305 0.04596172 -0.09721128
0001f0 cd 56 56 bc 91 59 05 bc 57 17 8c bd f7 4d 97 bd
       -0.013082218 -0.00813903 -0.06840389 -0.073879175

fc3.weight f4 [64, 128]
000000 6d b6 09 be 17 ce 97 bd 12 60 58 be 11 91 5c be
       -0.13448496 -0.074123554 -0.21130398 -0.21539713
000010 e2 0f ae 3d ab 75 8e 3c f5 68 f7 bd 1f 23 4c be
       0.08499123 0.017390093 -0.12080566 -0.19935273
000020 be a3 34 3d 8a 33 00 3e ba 98 e3 3d e9 05 95 bd
       0.04410147 0.1251966 0.11113115 -0.07276518
000030 f5 6f a9 3d ac 87 ce 3d 5b 3a 26 3c c2 b3 7d 3d
       0.08273307 0.10084471 0.010145749 0.06193901
000040 d1 c6 b8 bd 5e 07 ba bd 62 cd c4 3d 84 d0 31 3b
       -0.09022296 -0.090834364 0.09609486 0.0027132342
000050 c8 8c 1e 3c 20 1c ad bd 8b 65 0d be 81 14 c7 bd
       0.00967712 -0.0845263 -0.13808267 -0.09720708
000060 47 55 f3 bc 2c 0b a5 3e d3 74 2e 3e 04 95 94 bd
       -0.02970375 0.32235086 0.17036752 -0.07254985
000070 44 54 16 3e 5f 30 74 3d eb ca 21 be 94 30 a6 bd
       0.14680582 0.059616443 -0.15800063 -0.08114734
000080 6f aa f3 3b af 54 8a bc b3 1f ca bc ad e5 a3 3c
       0.0074360888 -0.016886083 -0.024673318 0.020006979
000090 42 88 ad bd 19 52 b6 bc 2c e3 58 3d ea 03 82 bd
       -0.08473255 -0.022255944 0.052951023 -0.06348403
0000a0 e2 2c 9b bd 97 87 a6 bd ed 22 fc bd 32 f2 13 be
       -0.0757692 -0.081313305 -0.12311349 -0.14447859
0000b0 4a 3a 31 bd f1 ad cc bc b0 2b 48 be 7a 3f 98 3d
       -0.04326848 -0.024985285 -0.19547915 0.07433982
0000c0 4f 2c 2d be 81 3e 8e bd a9 05 7f be bc 7f ec 3d
       -0.16911434 -0.069455154 -0.24904503 0.11547801
0000d0 33 10 46 bd 08 6b c5 bd 09 8e c6 bd f0 77 15 be
       -0.048355293 -0.09639555 -0.0969506 -0.14596534
0000e0 c5 4e d4 bd a2 b1 bc bd 80 82 d9 3b c2 df ed 3d
       -0.103665866 -0.09213568 0.0066378713 0.11614944
0000f0 93 06 72 be e6 27 0f be 52 3e df 3c e1 e9 c6 bd
       -0.2363532 -0.13980064 0.027251396 -0.097125776
000100 03 01 0c bd 35 71 a3 3d 09 40 b3 bc e7 8c 88 3e
       -0.034180652 0.07980577 -0.02188112 0.2667
000110 c3 18 7b bd 48 55 06 bd 6f 0d 6b 3e db 85 0b 3e
       -0.06130291 -0.032796174 0.22954343 0.1362528
000120 11 27 7c bd 55 e3 53 bd a3 f6 ab 3e 13 38 8e bd
       -0.061560694 -0.051730473 0.33586606 -0.06944289
000130 2d 45 78 bc d6 e4 a4 bd 56 99 57 be 36 29 7b bd
       -0.015153212 -0.080514595 -0.21054587 -0.0613186
000140 29 f2 85 3c 88 c5 fa 3d 16 69 9a be 83 95 82 3d
       0.016350823 0.12244707 -0.301583 0.06376173
000150 04 f6 09 3c 7a dc 74 bd 73 d5 39 3d a8 90 86 be
       0.008420471 -0.059780575 0.045369577 -0.2628224
000160 37 c4 48 be d6 14 2c be 53 72 8b bb 4e a1 db 3d
       -0.196061 -0.16804823 -0.004255572 0.10724126
000170 aa 7c eb 3d f5 89 ec bd ff 3d 86 bd 18 72 55 3c
       0.11498387 -0.11549751 -0.065547936 0.01302769
000180 cc 29 e1 bd 47 3f bb bd 2f 92 67 be 00 df cf bc
       -0.109943 -0.091429286 -0.22614358 -0.02537489
000190 d4 ee 5d bd b2 e4 00 3e 55 63 d6 3d ed ab 74 3d
       -0.054182842 0.1258724 0.10468165 0.059734274
0001a0 9e 32 a8 3d 81 bb 5c be 42 44 59 bd 97 36 08 be
       0.082127795 -0.21555902 -0.05304361 -0.13302074
0001b0 c0 dd 48 3e 4d 13 0f bd 34 bb da 3c 34 74 96 3c
       0.19615841 -0.034930516 0.026700594 0.018365957
0001c0 fd 20 24 3c 3c b1 29 bd 53 74 ba bd 26 c2 fe 3d
       0.010017631 -0.04142879 -0.09104218 0.124393746
0001d0 f0 96 b8 3c a4 c0 fa bd 67 57 16 3c c1 30 0f 3d
       0.02253291 -0.122437745 0.009176112 0.034958605
0001e0 6a 9b 80 3c 3c 1d 43 3d b2 13 19 3e 6b d2 8e bd
       0.015699107 0.047635302 0.1494892 -0.06973728
0001f0 3e 73 c1 3c 00 12 42 3d a0 09 1c bd 53 30 fc bc
       0.023614522 0.047380447 -0.038095117 -0.030784762
000200 39 75 02 bd cc 49 a0 be 13 f6 12 3b b3 ec e0 bd
       -0.031850073 -0.31306303 0.0022424504 -0.10982647
000210 67 59 90 bd 59 9f 9a 3d 4d 5e 6c bb 20 b2 62 3d
       -0.07048302 0.075499244 -0.003606695 0.055345654
000220 f9 2f a5 3c 78 84 b4 3c ec f7 26 3d c4 b9 96 bd
       0.020164477 0.022035822 0.04076378 -0.07359651
000230 19 49 53 3e eb 6e 9b bc 5d d2 4d bd cf 3a 5c 3d
       0.20633353 -0.018973788 -0.050249446 0.05376702
000240 bb af 80 3e 1f e9 0b 3d 5c 76 25 3e f9 f6 fd bc
       0.25134072 0.03415787 0.16158432 -0.031001555
000250 3d b5 c2 3d 9e 11 dd 3c 5f eb 40 bd f9 ca 9f bd
       0.09507225 0.02698594 -0.047099467 -0.07802386
000260 47 1a 9f 3d e8 a8 47 3e d7 e5 5a bd ad 96 88 bc
       0.07768684 0.19498026 -0.05344185 -0.01667341
000270 bc 33 94 bd 53 13 33 bd 95 18 1d 3e 6d 09 17 3d
       -0.0723643 -0.0437196 0.15341409 0.036874224
000280 16 f3 0a 3d 16 bc a8 bd b7 f3 43 bd d3 20 0b 3e
       0.03392323 -0.082389995 -0.047839846 0.1358674
000290 6b 35 ff 3d 23 a4 34 be 7f 1c b5 3e 83 5c 94 bd
       0.124613605 -0.17640738 0.35373303 -0.07244208
0002a0 30 43 e3 bd 4c 30 36 be fd c5 fe 3b 26 e7 80 bd
       -0.110967994 -0.17791861 0.007775067 -0.06294088
0002b0 71 1f 12 3e 28 6b 24 bd 2e 35 4e 3d 5d cf 86 3d
       0.14269806 -0.040141255 0.050343685 0.0658252
0002c0 02 bb 09 3f dc 3b cb 3c 2c 33 db bd d1 65 28 bc
       0.53800976 0.024808817 -0.1070312 -0.010278181
0002d0 49 cc b1 3d 50 a5 3e 3e 3e b0 e1 3d 8d 34 04 3e
       0.086815424 0.18617749 0.11019944 0.12910672
0002e0 62 96 30 3e d1 db 8c 3d e8 7d 8f bc 5f 1f f4 bc
       0.17244866 0.06877864 -0.017516091 -0.029800115
0002f0 1c 57 2f be 72 98 eb 3d 94 8b 2c 3d f2 c9 10 3e
       -0.17123073 0.11503686 0.0421253 0.14139536
000300 a5 80 de bd 72 19 3a 3d 7a 7f 20 3d 88 86 34 3e
       -0.10864381 0.045434423 0.03918407 0.17629445
000310 42 c6 0e be d7 d5 e3 bd 29 50 a1 bc c4 d6 9f 3d
       -0.13942817 -0.11124771 -0.019691544 0.07804635
000320 39 82 10 be 69 ac 46 3d b9 36 a3 bb 4d 59 17 3d
       -0.14112176 0.048504267 -0.0049808887 0.0369504
000330 73 cd ee bd 0d 13 b9 bd b9 d4 2f bc a9 99 7e bd
       -0.1166028 -0.09036837 -0.010731869 -0.06215826
000340 4b c8 ba bd ba 8e 1d 3e 12 a3 ef bd 6d e4 25 bb
       -0.09120234 0.15386477 -0.11701025 -0.0025313154
000350 f9 ee f0 3d f7 c2 e5 3d 6d 37 da 3b b1 46 b2 bc
       0.117643304 0.11218827 0.0066594393 -0.021762224
000360 0b 67 ba 3d df d2 be 3d 71 a5 36 be 2d 71 86 3c
       0.09101685 0.09317564 -0.17836548 0.016411388
000370 d9 01 1d be d0 c5 3b be 08 17 65 bd 8a ca b3 3c
       -0.15332736 -0.18337178 -0.055930167 0.021947164
000380 26 53 b7 bd fa 47 fa 3d cd 8f ba 3d f4 95 b2 3d
       -0.08951406 0.1222076 0.09109459 0.087200075
000390 27 1a 64 3e 44 3f 53 be 71 6e 8c bd 00 7a 1a bd
       0.22275601 -0.20629603 -0.068570025 -0.037714005
0003a0 4d 2c 86 3d 56 cb 14 3e b6 d5 0d 3e c6 61 ca 3d
       0.065514185 0.14530692 0.13851056 0.0988193
0003b0 87 1a d7 bd fc e4 23 3e ab ae 08 ba 4c 51 10 be
       -0.105031066 0.1600532 -0.0005214016 -0.14093512
0003c0 c9 d4 d3 3d 7a 8d a0 bc 83 63 06 3d 4f f7 73 3d
       0.1034332 -0.019598711 0.032809746 0.059562024
0003d0 d3 bf 35 3d db 62 b3 bc 5d 07 c3 bd 0d c5 5a be
       0.04437239 -0.021897724 -0.09522889 -0.21364231
0003e0 89 6a 13 b9 f3 3c 77 3e 7c ef 32 3e a0 13 68 3e
       -0.000140587 0.24144344 0.17474169 0.22663736
0003f0 13 f8 fb 3d 2b cd 15 3e 24 94 86 3e f9 a9 30 be
       0.12303176 0.14629047 0.26284897 -0.1725234

fc3.bias f4 [64]
000000 1a 36 c9 bd 93 f7 91 3d d7 ff 25 3e f5 e8 42 bc
       -0.09824772 0.07127299 0.16210876 -0.011896362
000010 ec ae a0 3d 4d 96 0f be 8b a4 77 3e 0d e7 5b bd
       0.07845864 -0.14022179 0.24183862 -0.053687144
000020 e4 ae 0a 3e 0a 1b 47 3e d6 6c e8 3c 37 be 8b 3e
       0.13543278 0.19443908 0.02837221 0.2729356
000030 4a 17 fa b9 ed 21 96 bd bd 0d 9b bd e6 fb 97 bd
       -0.00047701068 -0.073306896 -0.0757098 -0.07421093
000040 3d e5 ec 3d a4 4c c5 3d 31 0a d6 bc ad 03 35 3e
       0.11567161 0.09633759 -0.026127907 0.17677183
000050 af ed 1e bc 3c 54 73 3e fe 1d 80 3d dd 43 40 3e
       -0.009700223 0.23762602 0.062557206 0.18775888
000060 42 ee c4 3c bb 98 86 bd 5d aa 26 be 2c 3c f0 ba
       0.024039391 -0.065721 -0.16275926 -0.001832848
000070 e1 f1 f3 3d d2 02 04 3e 12 d8 73 3e 07 12 8b bd
       0.11911369 0.12891701 0.23812893 -0.06790548
000080 31 6c c6 bd 0a d7 0e bd 1f 22 ea bc ae ed de bd
       -0.096886046 -0.034873046 -0.028580723 -0.108851776
000090 c2 bb 6d bc 87 6e cc bd 35 86 5d bd 1c 09 80 3c
       -0.014510097 -0.09982019 -0.054083068 0.015629344
0000a0 ee 5e 0b bd de 6f fc 3d 4d 11 ff 3c 17 6a 91 bd
       -0.03402608 0.123260245 0.03113618 -0.07100313
0000b0 37 a4 86 3d 52 d3 5f 3e b5 9d e5 bd 5b 06 d4 3c
       0.0657429 0.21857956 -0.11211721 0.025881937
0000c0 e4 4e 9b bd 91 22 31 3e 91 fe 8c bd 85 6c cf bd
       -0.075834066 0.17298342 -0.06884492 -0.1012812
0000d0 3c 7e 68 3e c6 a3 7a 3c 42 7b bf 3c 8b 7a 1b bd
       0.22704405 0.015297836 0.023374204 -0.037958663
0000e0 e7 8e 9c 3c 91 29 d4 bd c1 38 12 bd 8f a8 ae bc
       0.01911111 -0.10359491 -0.035698656 -0.02132061
0000f0 cc da f0 39 d7 df 23 3e e6 7d 82 bd 59 97 41 bc
       0.00045939384 0.16003357 -0.063716695 -0.011815869

fc4.weight f4 [4, 64]
000000 7e a0 0f be bd fd 89 bd 98 09 19 3e 5f 71 34 3c
       -0.14026067 -0.0673785 0.14945066 0.011013358
000010 d0 ba 00 3e b2 cf 4a be 70 84 45 3e b5 8d ab be
       0.12571263 -0.19805792 0.19288802 -0.3350655
000020 bb 76 50 3e f0 34 2a 3e 89 02 21 3e d1 23 1e 3e
       0.20357792 0.16621757 0.15723623 0.1544335
000030 98 40 10 bf 8d 92 41 3d ea 1d 71 bd 83 0a eb 3d
       -0.5634856 0.047258902 -0.05886642 0.11476614
000040 38 1a 02 3e 97 51 51 3e ff dd d0 be de 40 c8 3d
       0.12705314 0.2044128 -0.4079437 0.097779974
000050 1c d6 eb 3d ac 8c 1c 3e af 2f e4 be 30 d5 8e 3d
       0.115154475 0.15288037 -0.4456763 0.06974256
000060 91 4a 5b 3e 0a b6 88 bc 8f 40 85 be 23 d6 25 3b
       0.21415164 -0.016688365 -0.26025817 0.0025304637
000070 8a 29 02 bc be ba 09 3e b9 e4 ef 3d 01 62 c1 3e
       -0.007944474 0.13450143 0.11713547 0.37770084
000080 df 18 f8 ba 52 33 a3 bd db e9 b5 be 38 8e 4a bd
       -0.0018928311 -0.07968773 -0.3552998 -0.049452037
000090 10 42 8a 3d d2 2a d2 3c 24 bc cc bc 38 b2 3b 3e
       0.06750882 0.025655184 -0.024992056 0.18329704
0000a0 38 33 db be 4a c2 2c 3e 36 f6 72 bd 75 20 22 be
       -0.42812514 0.1687099 -0.059316836 -0.15832694
0000b0 bb 53 cb 3d 59 33 38 3e 7b 06 2d be 9e 26 5e 3e
       0.0992808 0.17988338 -0.16897003 0.21694419
0000c0 7c f1 ab be 59 76 21 3e 2d f3 49 be 8f b6 98 3d
       -0.33582675 0.15767802 -0.1972167 0.07456695
0000d0 d4 0d f6 3d 5c 20 34 3e 7a 25 8e bd d0 f9 d7 3b
       0.12014356 0.17590469 -0.06940742 0.0065910593
0000e0 65 95 84 3d 9e ef 13 3d 46 6d bb 3d 07 1c 39 bc
       0.06473807 0.03611719 0.09151702 -0.011298186
0000f0 9f 41 84 3e e1 e5 ad 3d 05 76 c0 bc 00 2a 2b be
       0.25831315 0.084911115 -0.023493776 -0.1671524
000100 1b a9 13 bd f9 4b 5c 3e 8f ec 26 bd 42 70 87 be
       -0.036049943 0.21513356 -0.040752944 -0.26452833
000110 18 43 85 bd 2b 8a 6d 3d 99 9f f4 3c 07 be af 3b
       -0.06506938 0.057993095 0.029861258 0.005363229
000120 7e 3d f3 ba 07 e0 17 3e d9 45 85 be 66 85 e6 3d
       -0.0018557755 0.14831553 -0.26029852 0.112559125
000130 39 86 82 bd df 52 87 3e da d5 63 be 3f f0 03 3e
       -0.06373257 0.26430413 -0.22249547 0.12884615
000140 a9 5b a2 3d 46 c9 68 3d d8 f9 d9 bc eb 16 5e 3e
       0.07927639 0.056832574 -0.026608393 0.2168843
000150 11 3e 66 be ef 98 68 3e eb 18 12 3c d4 d8 45 3e
       -0.22484614 0.2271459 0.008917074 0.19320995
000160 de 14 19 3e 09 25 d3 bd dc d6 6f be da b1 1e be
       0.14949366 -0.10309798 -0.23421806 -0.15497532
000170 96 ee c9 3d 0e 17 5b 3d 1f 82 16 3e d1 3f 53 be
       0.0985996 0.053488784 0.14698075 -0.20629813
000180 18 7a e7 3c 4b e0 03 be 06 1d 89 be 0b 89 4c 3e
       0.028256461 -0.1287853 -0.26779956 0.19974153
000190 65 47 ef 3c df 07 11 bd 69 e7 13 be 08 17 be 3e
       0.029208848 -0.035407897 -0.14443745 0.37126946
0001a0 3c d2 0d be 60 02 1a 3e 38 8a 39 3e e0 08 75 3e
       -0.1384973 0.15039968 0.18119133 0.23929167
0001b0 95 09 c4 bd 64 ea 60 3d 5f 69 a8 be f8 5a 53 ba
       -0.0957214 0.054911032 -0.32892892 -0.00080625666
0001c0 06 64 7e be 1d ef 2f 3e 61 63 27 3e 75 bd 50 bd
       -0.24842843 0.17181058 0.16346504 -0.05096193
0001d0 6a 11 25 3e 02 c6 db bd 8e b9 59 bc 5b bd 73 3e
       0.16119924 -0.10731126 -0.013288869 0.23802702
0001e0 df c4 91 3e 97 44 49 bc f2 f4 df bc a6 9d 3a bb
       0.28470513 -0.0122844195 -0.027338479 -0.0028475313
0001f0 79 67 98 3c f1 49 e1 3d ba 3b 8d 3d 00 5d 83 bc
       0.018604027 0.11000431 0.068961576 -0.016035557
000200 e5 af b4 be cd 23 06 bd ed 2c 30 bc bd df 97 3e
       -0.35290447 -0.032748986 -0.010752899 0.29662886
000210 19 02 18 bd f2 07 7b be 06 b5 52 3e 08 cf 71 be
       -0.037111375 -0.2451475 0.20576867 -0.23614132
000220 4c a0 39 3e d4 14 32 3c 79 dd 96 be 35 66 15 3e
       0.18127555 0.010869224 -0.29465845 0.1458977
000230 ba 49 4c be 3f 39 46 be 67 b2 9c be 66 cc bc be
       -0.1995 -0.19357775 -0.3060486 -0.36874694
000240 f7 6c 59 3e 53 40 11 3e 75 bb 16 3e 1c a1 3a 3e
       0.21232973 0.14184694 0.14719947 0.18225521
000250 f8 29 34 3d 01 c9 1c 3e fa ab 37 bd 66 30 4a 3e
       0.043985337 0.15311052 -0.044841744 0.19745025
000260 57 e7 c3 3e e8 3c 40 be e8 ea 69 3e 5e a9 89 be
       0.38262436 -0.18773234 0.22843516 -0.2688703
000270 a3 36 19 3d 92 29 c5 bc 86 04 5c 3e 2e 90 df bd
       0.03740562 -0.024067674 0.214861 -0.10916172
000280 27 79 39 3d 8f 16 a1 3e c2 93 cd 3c c5 06 0b be
       0.045281556 0.31462523 0.02509487 -0.13576801
000290 6b 5e a5 3d 2a ac 96 3d 6d 85 7e be 6c ff a6 3d
       0.080746494 0.073570564 -0.24855585 0.081541866
0002a0 a5 db 94 be 9f b0 a6 3d e4 7c 1f 3e 22 09 d2 bd
       -0.29073825 0.081391566 0.15574986 -0.10255648
0002b0 ac 70 7a bd 0a 3a 1a 3e 90 19 89 bd 3e 51 a0 be
       -0.06114261 0.15061203 -0.06694329 -0.31311983
0002c0 b2 23 7a 3d 8a 56 10 be 12 b9 4f 3e 48 a9 85 3d
       0.061069198 -0.14095512 0.20285442 0.065264285
0002d0 86 37 00 bd 0a 53 08 be 65 46 01 3e 72 f9 90 3e
       -0.03130295 -0.13312927 0.1262451 0.28315312
0002e0 8b 28 4e 3c cd d4 2b 3d af d2 8d be 0f 7b df 3d
       0.012582908 0.04195099 -0.276998 0.109121434
0002f0 34 21 87 3d a1 c7 87 bd 23 99 44 3d c3 44 77 be
       0.0659813 -0.06629873 0.047997605 -0.24147324
000300 59 36 14 3e a1 38 19 3e dd 96 27 3e 87 5c 2e be
       0.14473857 0.14963008 0.16366144 -0.17027484
000310 76 e1 46 3e fd 2e de 3d 9d 0d 7b 3e 9f dd 49 be
       0.19421944 0.10848806 0.24516912 -0.19713448
000320 b6 17 5d bd 6c 58 83 3c 1c a4 96 3e 08 07 65 3e
       -0.05397769 0.016033374 0.2942208 0.22365963
000330 8f 0e a5 bd 17 88 b1 3e 03 a8 1c bd f0 28 de 3d
       -0.080594175 0.3467414 -0.038246166 0.10847652
000340 f5 db 61 3e 0e a4 4a 3e a3 76 61 3d d4 5f 3c bd
       0.22056563 0.19789144 0.05504478 -0.045989826
000350 fa 3a 87 3e 95 a2 0a 3e 01 9c b8 be 91 cc 66 3e
       0.26412183 0.13538583 -0.36056522 0.22538973
000360 e4 37 07 3d 46 89 9b bc bc 56 a6 3c e9 e4 1f 3e
       0.033012286 -0.018986356 0.02030503 0.15614666
000370 50 c5 47 3e 5c 13 2b bc 3d 81 ff 3d 53 a4 6f bd
       0.19508862 -0.010441627 0.12475822 -0.05850632
000380 65 ea e5 bd aa 09 76 bc 11 8e 27 be 99 57 69 be
       -0.11226348 -0.0150169525 -0.16362788 -0.22787322
000390 dd bb 32 be 18 28 81 bd 70 40 85 be e9 f6 cd 3e
       -0.17454477 -0.063064754 -0.26025724 0.4022744
0003a0 ef d5 42 be 9a ea 47 bd a3 30 45 be 9d ed a1 3c
       -0.19026922 -0.048807718 -0.19256835 0.019766623
0003b0 d1 95 9b 3d 23 3a 01 3e 39 8c 98 be 46 2d 72 bd
       0.075969346 0.12619834 -0.2979448 -0.059125207
0003c0 62 d9 0e 3e f2 6b 2f 3e e3 28 49 be 81 05 b5 bd
       0.13950112 0.17131022 -0.19644503 -0.088389404
0003d0 15 3a 2b 3e 8a 72 62 be 2f df 22 bf 2c 8e 07 be
       0.16721375 -0.22114006 -0.636218 -0.13237828
0003e0 25 d3 b0 bd 02 15 22 3d 3c 01 5b 3e 53 62 37 3e
       -0.086340226 0.039570816 0.2138719 0.17908601
0003f0 6c 86 0e be 5a 53 1b 3e 61 0f 5f 3d 6a 46 ad 3e
       -0.13918465 0.15168515 0.054458026 0.33842784

fc4.bias f4 [4]
000000 81 9d 35 3d 76 22 80 3d 13 cb e3 3d f8 37 a5 3d
       0.04433966 0.06256573 0.11122718 0.08067316
