model_weights_checkpoint.pth (torch, 80047 bytes, 8 tensors)

fc1.weight f4 [64, 37]
-0.22851099 0.18852703 -0.23797289 -0.0022642405 0.016576925 0.18719633 -0.36840984 0.17614724
-0.119313784 -0.13811128 0.019507265 -0.13723911 -0.18957494 -0.19259657 -0.5299804 0.1369751
0.049188968 0.11733824 -0.16269508 -0.29135054 -0.051357355 0.11873009 0.07139704 -0.06697653
0.35190755 -0.15452586 0.07194514 0.046694122 -0.080159284 0.16527748 -0.041207206 0.15487133
-0.08666176 -0.14954089 0.07999077 -0.024609843 0.0077666454 0.20604074 0.120209455 0.06265781
-0.25071332 -0.4126155 -0.22808827 -0.12813509 0.06829416 0.03314783 0.2793895 -0.0048227953
-0.005783093 -0.05416914 0.046792433 0.04841338 0.09194513 -0.11150593 0.12796737 -0.0007619761
0.023723124 0.018005064 -0.05544604 -0.20389517 -0.19701046 -0.31894186 -0.23820737 0.05632567
0.17608662 0.113322295 0.025666442 0.006481148 0.2603255 0.033441685 -0.15785809 -0.123803526
-0.09706135 0.08129917 -0.22471641 0.28902435 0.16713151 0.15554544 0.11080203 -0.03646759
-0.09468775 0.11727812 -0.16461594 -0.1866691 0.4249174 -0.315637 -0.17009036 -0.47065338
-0.7880414 0.118307106 -0.023033328 0.0968007 0.08891437 -0.095675305 -0.16439109 -0.2675137
0.1612462 0.21931289 0.071436904 -0.16341422 0.2470263 0.12000544 -0.09031167 -0.12069407
-0.38439903 0.13602118 -0.08806084 -0.24378416 -0.11098479 0.07857532 -0.048093934 0.04531181
-0.173161 0.34307143 -0.30324295 -0.3889995 0.014782648 -0.30507228 -0.057922944 0.06413648
-0.33703783 -0.4454078 -0.11199191 0.037054688 0.1917965 -0.55387783 -0.6616488 -0.09337498
0.026847944 -0.15309586 0.33805788 0.024760392 -0.4474485 0.015278067 0.077114806 -0.33820218
0.118874654 -0.23533978 -0.12863724 0.007787266 0.14446372 0.20481363 -0.17976208 -0.0038942813
-0.51654273 -0.09272634 -0.0048161596 0.0128393 -0.24894962 -0.2103343 0.098603666 -0.26966658
-0.9772126 0.137222 -0.3212586 0.011610701 -0.246183 -0.29790106 0.0734439 -0.079914846
-0.16855997 0.08154335 -0.2629155 -0.5356792 -0.44406396 0.2998646 -0.021354401 -0.6057234
-0.15527557 0.22034897 0.01833383 -0.084581345 0.12073459 0.03529072 -0.22623833 0.28721437
-0.09714903 -0.4997784 0.19755238 -0.03575199 -0.13582434 0.0035329298 -0.15873057 0.1176352
-0.035613235 -0.05794398 -0.060713783 0.118800946 0.010469551 0.3134962 0.37564808 -0.08196643
-0.31403998 -0.6231434 -1.9086108 -0.09146158 -0.09179865 0.047101207 0.019042293 0.076433666
0.009532185 0.030323157 -0.00914423 -0.014182069 0.07760629 0.15094182 0.114890404 0.024854112
0.15797305 0.118900895 -0.087730296 0.078269936 0.08759441 -0.0511515 0.038438484 -0.0031204626
0.030622471 0.04787592 0.10006402 0.076020405 -0.0071008857 0.016125543 0.13591799 -0.15802856
-0.0042650197 -0.20299162 -0.39452648 -0.61315644 0.0099916635 0.028623171 0.37601882 0.122052535
-0.12036827 -0.015042179 0.12724197 0.2723953 0.13235477 -0.34869918 -0.12425771 -0.03055246
0.2419013 -0.14507751 -0.14122622 0.034549076 0.09856618 -0.37929022 0.14340742 -0.25033528
0.08979689 -0.024956152 -0.3207228 0.08390903 -0.027076067 0.27842373 -0.15004045 -0.44231412
00000000: c9fe 69be 3b0d 413e 2aaf 73be a763 14bb
00000010: 55cc 873c 65b0 3f3e 37a0 bcbe f15f 343e
00000020: c95a f4bd 0b6d 0dbe b3cd 9f3c 6988 0cbe
00000030: ef1f 42be 0938 45be ccac 07bf 3343 0c3e
00000040: 5f7a 493d 084f f03d 8a99 26be e62b 95be
00000050: 175c 52bd c328 f33d 9c38 923d fe2a 89bd
00000060: 3a2d b43e 073c 1ebe f957 933d 5642 3f3d
00000070: 8d2a a4bd 803e 293e e3c8 28bd 9796 1e3e
00000080: b97b b1bd 3f21 19be 33d2 a33d 959a c9bc
00000090: 587f fe3b 58fc 523e 6030 f63d bd52 803d
000000a0: 7f5d 80be 5742 d3be f98f 69be d835 03be
000000b0: cfdd 8b3d 05c6 073d 240c 8f3e 8a08 9ebb
000000c0: 1a80 bdbb 76e0 5dbd 6ca9 3f3d 1c4d 463d
000000d0: ba4d bc3d 395d e4bd e109 033e 5abf 47ba
000000e0: ff56 c23c 5b7f 933c 631b 63bd e5c9 50be
000000f0: 1cbd 49be 594c a3be a2ec 73be bfb5 663d
00000100: 0d50 343e 8515 e83d 6e42 d23c cf5f d43b
00000110: 6249 853e 26fa 083d 8da5 21be b48c fdbd
00000120: 1ac8 c6bd 2e80 a63d 0f1c 66be 00fb 933e
00000130: 8624 2b3e 4e47 1f3e 2dec e23d 0a5f 15bd
00000140: a7eb c1bd 832f f03d 1591 28be 2f26 3fbe
00000150: c68e d93e 2c9b a1be 2b2c 2ebe 7bf9 f0be
00000160: 15bd 49bf ff4a f23d 64b0 bcbc 723f c63d
00000170: bd18 b63d 6af1 c3bd 2356 28be 8ef7 88be
00000180: b91d 253e 8f93 603e 834d 923d 0f56 27be
00000190: 76f4 7c3e 6ac5 f53d 53f5 b8bd 742e f7bd
000001a0: f3cf c4be 2349 0b3e 3e59 b4bd 8ea2 79be
000001b0: fe4b e3bd 19ec a03d 25fe 44bd e098 393d
000001c0: 1e51 31be 0fa7 af3e a942 9bbe f12a c7be
000001d0: eb32 723c 6f32 9cbe 9c40 6dbd fd59 833d
000001e0: 3990 acbe 7e0c e4be 045c e5bd a8c6 173d
000001f0: 4d66 443e f0ca 0dbf d161 29bf 623b bfbd
00000200: 38f0 db3c 29c5 1cbe ec15 ad3e 4ed6 ca3c
00000210: f817 e5be dc50 7a3c 5eee 9d3d d628 adbe
00000220: 8e74 f33d e9fc 70be 7bb9 03be 522c ff3b
00000230: 4cee 133e aaba 513e 8d13 38be 3337 7fbb
00000240: 253c 04bf 4fe7 bdbd e0d0 9dbb ed5b 523c
00000250: a6ec 7ebe e061 57be b8f0 c93d bd11 8abe
00000260: 9b2a 7abf ed83 0c3e 027c a4be cf3a 3e3c
00000270: 6517 7cbe 7d86 98be c169 963d 65aa a3bd
00000280: fc9a 2cbe 3300 a73d dc9c 86be 4622 09bf
00000290: 5a5c e3be da87 993e 6def aebc b010 1bbf
000002a0: 8f00 1fbe 29a3 613e d430 963c fc38 adbd
000002b0: b243 f73d 018d 103d 05ab 67be c30d 933e
000002c0: 12f6 c6bd f4e2 ffbe 2c4b 4a3e ae70 12bd
000002d0: 8915 0bbe ba88 673b 448a 22be b9ea f03d
000002e0: 2fdf 11bd ab56 6dbd 04af 78bd e94d f33d
000002f0: 7b88 2b3c 9382 a03e f254 c03e 04de a7bd
00000300: d9c9 a0be 5386 1fbf 5c4d f4bf 3550 bbbd
00000310: ee00 bcbd 32ed 403d 95fe 9b3c 4189 9c3d
00000320: e22c 1c3c 4568 f83c aed1 15bc e95b 68bc
00000330: 0cf0 9e3d 7e90 1a3e a94b eb3d da9a cb3c
00000340: b0c3 213e 5082 f33d f1ab b3bd fd4b a03d
00000350: b364 b33d 3c84 51bd ac71 1d3d ad80 4cbb
00000360: fadb fa3c 8a19 443d 5dee cc3d 96b0 9b3d
00000370: 8cae e8bb b719 843c 162e 0b3e 3dd2 21be
00000380: 94c1 8bbb 09dd 4fbe 60ff c9be d2f7 1cbf
00000390: 13b4 233c 247b ea3c 8a85 c03e aef6 f93d
000003a0: a483 f6bd 7973 76bc b84b 023e 6677 8b3e
000003b0: 0288 073e b388 b2be d47a febd 2749 fabc
000003c0: f9b4 773e 338f 14be 9b9d 10be 5583 0d3d
000003d0: 11dd c93d 5432 c2be 65d9 123e f22b 80be
000003e0: 6fe7 b73d d870 ccbc c735 a4be 7fd8 ab3d
000003f0: a1ce ddbc 8e8d 8e3e 34a4 19be ff76 e2be

fc1.bias f4 [64]
0.14475851 -0.05227385 -0.12865831 -0.057806052 0.24868199 0.00756219 -0.099108174 0.012880552
0.114148654 -0.06456264 0.149379 0.23513405 0.11795375 0.043853596 -0.12581977 -0.087065026
0.032905962 0.046602145 0.08607809 -0.066796795 -0.081922024 0.11341105 0.02415407 -0.074129425
-0.12665345 0.16583577 -0.051534038 -0.009606668 0.15215723 0.084586374 -0.028173232 -0.13893616
0.13474937 0.092236914 -0.10193047 0.104489 -0.1385334 0.05862218 -0.12754396 -0.0985299
-0.04448903 0.057338435 -0.04508472 0.0857363 0.04978084 -0.07079509 0.025649996 -0.13935001
-0.14001626 0.17184831 -0.099189 0.058901772 -0.06396152 -0.18478727 -0.17225301 -0.042188477
0.04444912 -0.0077030724 -0.09786512 0.027672853 -0.005054343 0.0190426 0.051560655 0.08189748
00000000: 933b 143e 1b1d 56bd 01bf 03be 0ac6 6cbd
00000010: 7ea6 7e3e 3fcc f73b 3af9 cabd f308 533c
00000020: c5c6 e93d 6b39 84bd cff6 183e fbc6 703e
00000030: bc91 f13d d49f 333d e6d6 00be 264f b2bd
00000040: 67c8 063d e4e1 3e3d b649 b03d c2cc 88bd
00000050: bcc6 a7bd 0d44 e83d c2de c53c 2bd1 97bd
00000060: 71b1 01be dad0 293e 5b15 53bd 4965 1dbc
00000070: 1bcf 1b3e 9f3b ad3d 8dcb e6bc 4845 0ebe
00000080: bdfb 093e b5e6 bc3d ecc0 d0bd 54fe d53d
00000090: b3db 0dbe d01d 703d e29a 02be 0bca c9bd
000000a0: 213a 36bd b5db 6a3d c1aa 38bd 8396 af3d
000000b0: fee6 4b3d 04fd 90bd f11f d23c c5b1 0ebe
000000c0: 6c60 0fbe 01f9 2f3e 9a23 cbbd fc42 713d
000000d0: 42fe 82bd e038 3dbe 1863 30be d3cd 2cbd
000000e0: 4810 363d 0e6a fcbb 826d c8bd 2eb2 e23c
000000f0: e79e a5bb 3aff 9b3c 4431 533d deb9 a73d

fc2.weight f4 [128, 64]
-0.043076206 0.17807873 -0.030933192 -0.07876108 0.12928699 -0.21478094 -0.11901341 -0.0547518
-0.046001393 0.14330946 -0.2322036 -0.17110442 -0.4218726 0.1322912 -0.60011756 -0.03936563
-0.11521686 -0.105275914 0.11152671 0.06955558 0.017187832 -0.24015006 0.047578856 -0.17289287
-0.041559894 -0.22223426 0.31052268 0.050633598 -0.006096753 0.06463117 -0.2844434 -0.18938972
0.4386771 0.10599015 0.05103688 -0.09291698 -0.4185381 0.39722273 -0.034320243 -0.53058815
-0.27830234 -0.20013258 -0.102478266 -0.03315003 -0.078829326 0.0050223228 -0.3584794 -0.019672122
-0.1447126 0.16491215 -0.01429254 -0.122691154 -0.16518818 -0.13143075 -0.52358717 -0.3316168
-0.08784049 -0.05663906 -0.059513614 -0.26520908 -0.041606776 0.114270926 -0.20131259 -0.20615953
0.15240145 0.034755956 -0.026300434 0.3010814 0.06419491 -0.00970064 -0.46788186 0.17415966
-0.2038205 -0.4116174 -0.32538986 0.07113525 -0.26220313 -0.16710733 -0.0011306423 0.37264997
0.16691944 -0.21048403 -0.26938748 0.009637989 0.2392477 -0.3007691 0.08371309 -0.42490736
-0.2678089 0.09809172 -0.22000049 -0.38545054 -0.1939513 -0.45531517 0.32445195 -0.23918773
-0.077886224 0.18747832 -0.05063338 -0.11832231 0.24323833 0.096787445 0.3711802 -0.16423118
-0.15805285 -0.12847687 0.15637566 -0.46908957 0.16704492 -0.21724153 -0.12526286 -0.07688039
-0.19929501 -0.0028584397 -0.12133963 0.029234523 -0.2836403 0.04150661 0.16943586 -0.14401396
-0.1575098 0.0760138 -0.03607991 0.21418242 -0.12777244 -0.0459108 -0.1282572 -0.09811809
-0.023429925 -0.08940751 0.051178355 0.044078134 0.110315844 0.28829148 -0.052273754 0.06593475
0.15619768 -0.21151115 -0.14328507 0.5925297 -0.013023017 0.031002063 0.015348746 0.06456775
-0.21782291 0.04185416 -0.09186222 -0.07748317 -0.34988067 0.12786159 -0.014298457 -0.14370552
-0.08705014 0.045361318 0.03431816 0.3003042 0.13002422 0.13908745 0.1801883 -0.030834481
-0.05671959 -0.2926027 -0.18172128 -0.0056564994 0.20853318 0.076117665 -0.042408638 0.004126275
-0.061131205 -0.045118317 -0.22841501 -0.053911917 0.048788857 0.04276455 -0.14019266 -0.094402544
0.11286907 0.08135857 -0.24080847 0.05414476 -0.04125655 -0.01519626 0.01985571 -0.10719298
-0.031827755 -0.03336287 0.08723857 0.10255951 -0.10434966 -0.082131796 0.07052812 0.02654529
-0.08792178 -0.09799675 -0.12863405 -0.312752 -0.3074662 -0.09654522 0.307935 -0.12729986
-0.17478374 -0.21743256 -0.049451824 -0.06966806 0.027600614 0.1646276 -0.07989582 -0.23892358
0.10376596 -0.06387339 0.02887611 0.12501149 -0.29628646 -0.04255058 0.034558337 0.13119791
0.14392164 0.121331744 0.029008199 0.41788757 0.06868781 -0.4103667 -0.20771566 0.2596515
-0.05391551 0.07375356 0.06388545 0.15256515 -0.15730616 0.006149841 0.23291945 -0.060570955
-0.38746879 0.27132306 0.20973156 -0.022607014 -0.026615921 0.036828324 -0.031016199 0.014825116
0.044533897 -0.4071609 0.0632896 -0.17225827 0.1291942 0.055556126 -0.094525844 0.10893484
-0.090293825 -0.15648682 -0.09232696 0.25799158 -0.118380554 0.22123994 -0.08289201 -0.025059879
00000000: ad70 30bd 455a 363e 9b67 fdbc 7d4d a1bd
00000010: cf63 043e 89ef 5bbe 4dbd f3bd 6c43 60bd
00000020: f56b 3cbd b7bf 123e c8c6 6dbe ff35 2fbe
00000030: afff d7be 5877 073e 4ea1 19bf db3d 21bd
00000040: d1f6 ebbd e69a d7bd 1e68 e43d 2873 8e3d
00000050: 7fcd 8c3c e6e9 75be 0ce2 423d d40a 31be
00000060: b53a 2abd 6191 63be d4fc 9e3e 2d65 4f3d
00000070: 45c7 c7bb 595d 843d 91a2 91be 61ef 41be
00000080: 499a e03e 5d11 d93d 0c0c 513d 424b bebd
00000090: a04a d6be c760 cb3e 6293 0cbd a0d4 07bf
000000a0: a57d 8ebe 8eef 4cbe 20e0 d1bd 53c8 07bd
000000b0: 4571 a1bd 4c92 a43b 9d8a b7be 6e27 a1bc
000000c0: 8a2f 14be bbde 283e 422b 6abc 8045 fbbd
000000d0: 1727 29be c895 06be cf09 06bf adc9 a9be
000000e0: b7e5 b3bd 5cfe 67bd 8cc4 73bd 7cc9 87be
000000f0: de6b 2abd e006 ea3d e324 4ebe 7c1b 53be
00000100: 200f 1c3e 435c 0e3d 0274 d7bc 5727 9a3e
00000110: 9f78 833d 6fef 1ebc 368e efbe e956 323e
00000120: 52b6 50be 84bf d2be 8099 a6be 5caf 913d
00000130: 7d3f 86be 2f1e 2bbe 0f32 94ba facb be3e
00000140: eeec 2a3e 2089 57be 28ed 89be a8e8 1d3c
00000150: 59fd 743e 68fe 99be c571 ab3d 758d d9be
00000160: 401e 89be 50e4 c83d cf47 61be c659 c5be
00000170: 2b9b 46be 121f e9be 911e a63e a1ed 74be
00000180: d082 9fbd 51fa 3f3e f264 4fbd f852 f2bd
00000190: 7813 793e 7f38 c63d 550b be3e 382c 28be
000001a0: 9bd8 21be 718f 03be f120 203e 822c f0be
000001b0: d30d 2b3e 9074 5ebe e844 00be 7773 9dbd
000001c0: fe13 4cbe a954 3bbb e980 f8bd 3d7d ef3c
000001d0: 4d39 91be d602 2a3d 9880 2d3e 6578 13be
000001e0: 404a 21be 20ad 9b3d 87c8 13bd a352 5b3e
000001f0: c7d6 02be f70c 3cbd db55 03be 23f2 c8bd
00000200: 1df0 bfbc 491b b7bd 65a0 513d 468b 343d
00000210: 46ed e13d f19a 933e 011d 56bd cc08 873d
00000220: 49f2 1f3e 6196 58be 52b9 12be 07b0 173f
00000230: 7e5e 55bc 0af8 fd3c 4f79 7b3c 193c 843d
00000240: f80c 5fbe 456f 2b3d 4222 bcbd 7faf 9ebd
00000250: 8f23 b3be 26ee 023e 1344 6abc 8a27 13be
00000260: 5847 b2bd cacc 393d 3391 0c3d 79c1 993e
00000270: 1225 053e f16c 0e3e 4883 383e 9898 fcbc
00000280: cd52 68bd 05d0 95be 2515 3abe 285a b9bb
00000290: b989 553e 94e3 9b3d aeb4 2dbd b435 873b
000002a0: b764 7abd fccd 38bd a0e5 69be bed2 5cbd
000002b0: d3d6 473d e129 2f3d aa8e 0fbe 1f56 c1bd
000002c0: e627 e73d 529f a63d 7f96 76be e5c6 5d3d
000002d0: a1fc 28bd bcf9 78bc 71a8 a23c fe87 dbbd
000002e0: d25d 02bd 81a7 08bd 23aa b23d b80a d23d
000002f0: 46b5 d5bd b734 a8bd 0c71 903d 8275 d93c
00000300: 5610 b4bd 85b2 c8bd a5b8 03be 0821 a0be
00000310: 366c 9dbe 80b9 c5bd a8a9 9d3e e55a 02be
00000320: 82fa 32be a4a6 5ebe ff8d 4abd 21ae 8ebd
00000330: af1a e23c 2394 283e 6ba0 a3bd 62a8 74be
00000340: 3f83 d43d 0dd0 82bd 988d ec3c 0303 003e
00000350: dcb2 97be 8449 2ebd 0b8d 0d3d bf58 063e
00000360: 3260 133e c77c f83d 9aa2 ed3c 5cf5 d53e
00000370: 32ac 8c3d 961b d2be 6ab3 54be 0bf1 843e
00000380: 83d6 5cbd 1b0c 973d 60d6 823d 0a3a 1c3e
00000390: de14 21be 9b84 c93b 7082 6e3e 4019 78bd
000003a0: 4f62 c6be dbea 8a3e dfc3 563e 5832 b9bc
000003b0: a209 dabc 4cd9 163d af15 febc 0be5 723c
000003c0: 2d69 363d 6577 d0be fa9d 813d 7964 30be
000003d0: 7c4b 043e d28e 633d c496 c1bd 3b19 df3d
000003e0: f8eb b8bd 153e 20be eb15 bdbd 7917 843e
000003f0: 8171 f2bd b98c 623e 49c3 a9bd 604a cdbc

fc2.bias f4 [128]
0.05247646 0.02802882 0.08756513 -0.08378985 0.06760683 0.045925204 0.08635822 0.026397929
-0.035696816 0.2662921 0.033560466 -0.11918153 -0.076074086 -0.13390918 0.0009268595 -0.08686506
0.0059868526 -0.0048615006 0.060553726 -0.019089354 -0.12051756 -0.048140377 -0.124507695 -0.053429943
-0.049765754 -0.044871002 0.036290642 0.052351333 0.04032113 0.03534377 -0.04720264 0.080733895
-0.24285148 -0.04850452 0.02543789 0.03462762 -0.13062678 -0.016713345 -0.1324136 -0.061345134
0.012246757 -0.06634163 0.13977253 0.0006954806 -0.016929746 -0.013946799 -0.1285547 -0.15080348
-0.03409302 -0.11909992 0.17873879 -0.13568804 0.14194544 0.02417647 -0.033325035 0.07343712
-0.0074178493 -0.08459704 0.10043966 0.009830483 -0.0012909264 0.09464639 0.016561668 0.010561696
-0.09395957 0.05371779 0.051340573 -0.1334812 -0.010535193 0.0593132 -0.02201583 0.051168937
-0.10964776 -0.022256698 0.062084254 -0.07625015 0.062388483 -0.08001392 -0.050342802 -0.052902795
-0.17830503 0.09143301 -0.10520432 0.118132964 -0.034369364 -0.04981901 -0.06548752 0.010683536
-0.15412605 -0.10512673 -0.08216606 0.020977858 -0.09520434 0.049005564 -0.09500983 -0.17379867
-0.09624896 0.07682051 0.027424969 -0.1301794 -0.066775985 0.16958882 0.07951085 -0.060152423
-0.054932307 0.09262642 0.21508849 0.017452491 -0.049461715 0.029040184 -0.03620718 -0.0277301
-0.015031596 0.05972334 -0.09970278 0.052894197 -0.06826194 -0.030894442 0.09059751 0.064326875
-0.12690395 -0.07729432 0.11927457 -0.10252731 -0.1148999 -0.08777524 0.1072032 -0.11942825
00000000: 8ef1 563d b29c e53c 5955 b33d 039a abbd
00000010: 7375 8a3d 111c 3c3d 94dc b03d 7840 d83c
00000020: d336 12bd 7057 883e b376 093d 7215 f4bd
00000030: bbcc 9bbd 7d1f 09be 7df8 723a 4fe6 b1bd
00000040: 5c2d c43b 394d 9fbb 2f07 783d 4761 9cbc
00000050: e9d1 f6bd d82e 45bd e4fd febd 5bd9 5abd
00000060: 2dd7 4bbd a8ca 37bd 7fa5 143d 5a6e 563d
00000070: c527 253d a1c4 103d 8e57 41bd d057 a53d
00000080: 0fae 78be adac 46bd 1f63 d03c b1d5 0d3d
00000090: 07c3 05be 6dea 88bc 6e97 07be 0945 7bbd
000000a0: 9fa6 483c 1fde 87bd 8820 0f3e ea50 363a
000000b0: 40b0 8abc 1d81 64bc d8a3 03be 3a6c 1abe
000000c0: 1fa5 0bbd a9ea f3bd 4d07 373e cef1 0abe
000000d0: 255a 113e bb0d c63c d57f 08bd 3366 963d
000000e0: 6e11 f3bb 3741 adbd 4fb3 cd3d 0910 213c
000000f0: 4d34 a9ba f7d5 c13d 56ac 873c f70a 2d3c
00000100: e06d c0bd 2f07 5c3d 7e4a 523d 4caf 08be
00000110: cd9b 2cbc 66f2 723d 8b5a b4bc 8596 513d
00000120: 018f e0bd ae53 b6bc 0f4c 7e3d 0a29 9cbd
00000130: 118b 7f3d 57de a3bd 4134 4ebd 9ab0 58bd
00000140: 9895 36be 3b41 bb3d 5d75 d7bd b2ef f13d
00000150: e4c6 0cbd 050f 4cbd 521e 86bd ff09 2f3c
00000160: 38d3 1dbe af4c d7bd ae46 a8bd c2d9 ab3c
00000170: 7efa c2bd 0fba 483d 8494 c2bd 47f8 31be
00000180: 2d1e c5bd 1254 9d3d 54aa e03c c04d 05be
00000190: d9c1 88bd b1a8 2d3e 96d6 a23d 6362 76bd
000001a0: b300 61bd ecb2 bd3d 2840 5c3e 87f8 8e3c
000001b0: 5e98 4abd aee5 ed3c fb4d 14bd 3c2a e3bc
000001c0: 1547 76bc 76a0 743d f930 ccbd 96a7 583d
000001d0: eacc 8bbd 5716 fdbc 308b b93d cfbd 833d
000001e0: 1cf3 01be 7c4c 9ebd 3a46 f43d d7f9 d1bd
000001f0: a450 ebbd 81c3 b3bd 5a8d db3d cc96 f4bd

fc3.weight f4 [64, 128]
-0.0006914003 -0.048203062 -0.01697015 0.037075214 -0.07980623 0.01734787 0.010204608 -0.068359755
0.05233319 0.026640845 0.02221254 -0.035288006 0.021228071 0.040865622 -0.013101481 -0.024681542
0.0016903803 -0.09087844 0.06915062 0.0030083526 -0.048209738 0.008419029 -0.06009566 -0.0063275998
-0.061174262 0.027326467 0.042583898 -0.03968222 0.07296713 0.04290724 -0.082848586 -0.057973653
-0.010080666 -0.047573175 0.06696106 0.039810445 -0.055458464 0.0012524312 0.0056677535 0.07191117
-0.04336966 0.015630681 -0.066527046 -0.08294064 0.08144937 0.044791028 -0.080439724 0.05194777
-0.05212191 0.06699962 0.0064028525 -0.03687292 -0.014749861 -0.0184457 -0.006954838 -0.054539807
0.03789508 -0.0611791 -0.011168088 -0.07789613 -0.067679696 -0.0043042493 -0.0118342405 -0.092209965
0.016797516 0.029688515 -0.043260556 -0.0045675207 -0.05355805 -0.076367244 -0.017674126 0.041086134
-0.0013305477 -0.06785191 0.06878386 -0.013893505 -0.08899377 0.00930591 -0.0723951 0.050290134
0.0009244498 0.0109181255 -0.094709 -0.01365831 -0.009593412 -0.019456163 0.011852536 -0.08101583
-0.07463666 -0.08053532 -0.03113981 0.004394737 0.03405395 0.0341261 -0.046106603 0.0024836364
0.015905684 -0.04511088 -0.09713538 -0.0069635017 -0.039676063 0.056079507 0.003810434 -0.008296417
0.027194267 -0.09149208 -0.03374522 -0.08218215 -0.021335043 -0.08342318 -0.008798068 -0.040775955
0.02783863 -0.096497595 -0.052380163 0.058218986 0.0630269 -0.008532532 -0.05318786 -0.095475614
0.05814751 0.0018736094 -0.043753367 -0.024220342 -0.035453457 0.043856844 -0.04562047 -0.022601783
0.3822844 0.055586416 -0.15303196 0.06733415 0.19091931 0.07306851 0.53972524 -0.06406694
-0.3560214 0.036248505 -0.033191185 0.08544371 0.049197394 0.028611232 0.39022782 0.40933275
-0.039600585 -0.13185841 -0.14205582 -0.03529087 0.1817129 -0.20114505 0.09454874 0.017654639
-0.23249042 -0.04945188 -0.13500585 0.057779998 0.42125332 -0.2862994 -0.053203944 0.14974518
-0.14341666 -0.1687212 0.0049450635 -0.18003097 0.132365 -0.18390073 -0.031622346 -0.3561274
0.015919974 0.25146207 0.0394201 -0.15876226 0.14220686 -0.18392551 -0.0748282 -0.19907625
0.28792888 0.16074744 -0.1299406 -0.14050022 0.07533095 -0.1594037 0.2342113 0.21081676
-0.024594942 -0.04411896 0.004250594 0.04848105 -0.17982084 0.029928874 0.15565445 -0.20571032
0.20404215 0.539164 0.087245785 -0.048523158 -0.09991388 0.08775073 -0.072846346 0.44384584
-0.09553998 -0.07776201 -0.13389373 -0.00822299 -0.15699066 -0.102368094 -0.25407377 -0.1055282
0.049652886 0.36313424 0.04419912 0.06430595 0.037329495 0.07679944 0.2466818 0.23058456
0.004408216 -0.020699304 -0.022000639 -0.19853175 -0.007429512 0.2871943 -0.34729055 -0.090403505
-0.19659923 -0.04935935 -0.020610534 -0.1786343 0.050893098 -0.120150074 -0.14027086 -0.08742644
0.01859342 -0.37440175 -0.027061567 -0.032020442 0.106758624 0.08789218 0.006439444 0.07839936
-0.32219827 0.15637282 -0.23484477 0.12201843 0.055419415 -0.19453904 -0.094558135 0.17498869
-0.18647383 -0.060428593 -0.048077688 -0.06993773 0.20397614 0.12070675 0.05762449 -0.29418197
00000000: 173f 35ba 9370 45bd fc04 8bbc 2edc 173d
00000010: 7371 a3bd 1f1d 8e3c 3a31 273c 3300 8cbd
00000020: 545b 563d e73d da3c 13f7 b53c 288a 10bd
00000030: 7ee6 ad3c b662 273d 98a7 56bc f230 cabc
00000040: c08f dd3a 7a1e babd d79e 8d3d c827 453b
00000050: 9377 45bd f8ef 093c de26 76bd c157 cfbb
00000060: dd91 7abd c1db df3c 746c 2e3d d389 22bd
00000070: ca6f 953d 81bf 2f3d 85ac a9bd c875 6dbd
00000080: 6129 25bc 17dc 42bd e122 893d 4710 233d
00000090: 6a28 63bd 9e28 a43a 90b8 b93b 2a46 933d
000000a0: 62a4 31bd ea0b 803c 553f 88bd c8dc a9bd
000000b0: edce a63d cc76 373d 95bd a4bd 2fc7 543d
000000c0: c97d 55bd 1937 893d 05cf d13b 0f08 17bd
000000d0: 67a9 71bc 701b 97bc 69e5 e3bb 2265 5fbd
000000e0: df37 1b3d f096 7abd 5bfa 36bc 0288 9fbd
000000f0: a79b 8abd a90a 8dbb 67e4 41bc 94d8 bcbd
00000100: f29a 893c 5435 f33c fb31 31bd 24ab 95bb
00000110: b05f 5bbd 6e66 9cbd 54c9 90bc ef49 283d
00000120: c665 aeba f1f5 8abd 8dde 8c3d 95a1 63bc
00000130: 5e42 b6bd d177 183c e243 94bd 07fd 4d3d
00000140: c756 723a f0e1 323c cbf6 c1bd 1bc7 5fbc
00000150: b02d 1dbc 8862 9fbc 2431 423c a1eb a5bd
00000160: 1bdb 98bd b4ef a4bd ea18 ffbc ba01 903b
00000170: 287c 0b3d cfc7 0b3d 47da 3cbd 81c4 223b
00000180: a34c 823c 30c6 38bd eaee c6bd 162e e4bb
00000190: 5e83 22bd a0b3 653d 79b8 793b b2ed 07bc
000001a0: 83c6 de3c 3360 bbbd 6e38 0abd 1d4f a8bd
000001b0: d4c6 aebc c6d9 aabd c625 10bc b004 27bd
000001c0: d70d e43c 88a0 c5bd 958c 56bd 0877 6e3d
000001d0: 3f14 813d 08cc 0bbc 83db 59bd b888 c3bd
000001e0: 152c 6e3d e693 f53a bb36 33bd bd69 c6bc
000001f0: a537 11bd 3ca3 333d 88dc 3abd 6027 b9bc
00000200: c8ba c33e 95ae 633d 69b4 1cbe 7de6 893d
00000210: 5a80 433e f1a4 953d 6f2b 0a3f 8735 83bd
00000220: 7048 b6be 5079 143d 7bf3 07bd 1dfd ae3d
00000230: 3583 493d 1a62 ea3c f1cb c73e 1094 d13e
00000240: 3934 22bd e405 07be 1577 11be 298d 10bd
00000250: f212 3a3e f8f8 4dbe c5a2 c13d 76a0 903c
00000260: f811 6ebe 0e8e 4abd f93e 0abe b8aa 6c3d
00000270: 84ae d73e d695 92be 61ec 59bd cd56 193e
00000280: d1db 12be 40c5 2cbe 330a a23b 0a5a 38be
00000290: b18a 073e 7950 3cbe 6f86 01bd 5556 b6be
000002a0: 9b6a 823c a3bf 803e f976 213d 9392 22be
000002b0: ad9e 113e f856 3cbe 873f 99bd a5da 4bbe
000002c0: 6a6b 933e fa9a 243e 260f 05be 4adf 0fbe
000002d0: 1d47 9a3d b93a 23be 16d5 6f3e 59e0 573e
000002e0: 557b c9bc 15b6 34bd 9148 8b3b 1194 463d
000002f0: f422 38be 662d f53c e163 1f3e baa5 52be
00000300: 6df0 503e a706 0a3f ebad b23d 38c0 46bd
00000310: a69f ccbd a8b6 b33d 7730 95bd c33f e33e
00000320: 77aa c3bd b041 9fbd 701b 09be b8b9 06bc
00000330: 29c2 20be 5da6 d1bd f515 82be 2b1f d8bd
00000340: d360 4b3d bbec b93e 230a 353d d7b2 833d
00000350: d0e6 183d 0649 9d3d 279a 7c3e 5c1e 6c3e
00000360: cc72 903b 9691 a9bc af3a b4bc e84b 4bbe
00000370: 4473 f3bb 220b 933e 11d0 b1be 7925 b9bd
00000380: 4f51 49be 082d 4abd 6cd7 a8bc e9eb 36be
00000390: 4875 503d 3e11 f6bd 2aa3 0fbe a20c b3bd
000003a0: 3a51 983c 96b1 bfbe 38b0 ddbc de27 03bd
000003b0: 44a4 da3d d100 b43d f901 d33b d88f a03d
000003c0: 2cf7 a4be 3220 203e 267b 70be cce4 f93d
000003d0: 78ff 623d 3e35 47be b2a7 c1bd 3c30 333e
000003e0: fff2 3ebe f983 77bd 1ced 44bd 833b 8fbd
000003f0: 1fdf 503e 1a35 f73d a807 6c3d 059f 96be

fc3.bias f4 [64]
-0.11545974 0.11826003 0.36845353 0.0061169937 0.26087007 -0.12711054 0.4888681 -0.023204662
0.23760359 0.4281618 -0.044945672 0.4792627 0.0017416143 -0.028385147 -0.087964475 -0.15659343
-0.020362131 0.027987279 -0.18160616 0.35034576 -0.07849724 0.48681933 -0.146274 0.40739673
0.0021046458 -0.0045769843 -0.18076704 0.18095398 0.010649161 0.33865252 0.4873448 -0.08689687
-0.0032847123 -0.19997182 -0.038383722 -0.014529067 0.048450906 -0.06294672 -0.028568983 0.25283965
-0.37723258 0.090811245 0.12700658 0.03224759 0.14084238 0.4615535 -0.08499715 -0.11961317
-0.094912335 0.43412635 0.307545 -0.055016454 0.5037857 -0.009258035 0.026172586 -0.00550765
0.06739893 -0.12030949 -0.012187134 0.21767116 0.039195985 0.3843304 -0.16173874 0.11048757
00000000: 2876 ecbd 5132 f23d f1a5 bc3e 1071 c83b
00000010: c390 853e 4429 02be eb4c fa3e b417 bebc
00000020: 5b4e 733e 0638 db3e f418 38bd ec61 f53e
00000030: e146 e43a f887 e8bc b826 b4bd 075a 20be
00000040: 7cce a6bc 9445 e53c f7f6 39be 8560 b33e
00000050: 29c3 a0bd 6240 f93e dac8 15be 4e96 d03e
00000060: 19ee 093b 87fa 95bb ff1a 39be 004c 393e
00000070: d279 2e3c dd63 ad3e 4285 f93e fcf6 b1bd
00000080: 5444 57bb 6ac5 4cbe 4038 1dbd 530b 6ebc
00000090: 7574 463d 36ea 80bd 8009 eabc 3374 813e
000000a0: a124 c1be 3ffb b93d 030e 023e 0d16 043d
000000b0: fc38 103e be50 ec3e fc12 aebd c0f7 f4bd
000000c0: 6661 c2bd cf45 de3e 8a76 9d3e ef58 61bd
000000d0: 1af8 003f 03af 17bc e467 d63c 8479 b4bb
000000e0: 7308 8a3d d264 f6bd 8bac 47bc 30e5 5e3e
000000f0: f88b 203d f4c6 c43e d79e 25be 4f47 e23d

fc4.weight f4 [4, 64]
0.035996918 -0.16803147 0.20217803 0.07231718 0.24744055 0.054581746 0.24258606 -0.40013814
0.16008939 0.21500218 0.1751115 0.20158833 -0.56140864 0.062728845 0.01503542 0.24346352
-0.02520796 0.39031446 -0.34770486 0.13297693 0.043635793 0.19699381 -0.4289692 0.12121867
0.11798478 -0.32249862 -0.17735016 0.17042105 -0.18442932 0.20863092 0.17962687 -0.012529569
0.26926318 -0.22489761 0.17567189 -0.25730526 0.098886006 -0.011800072 0.109666914 0.08985736
-0.23743725 0.03611654 0.15135461 0.21109173 0.16366628 0.22223152 -0.05084826 -0.1902793
0.070290424 0.21831591 0.12711363 0.19091865 0.20444502 0.059454862 -0.36255974 0.36093217
0.17812037 0.027768929 0.46152487 0.11120559 0.52698296 0.19277923 -0.3074186 -0.1022382
0.0675769 0.17060076 0.06622307 -0.6431135 -0.090991944 0.33950162 0.10344469 -0.20637769
0.12557031 0.20754717 -0.28244904 0.12329491 -0.042940225 -0.1792058 -0.043096606 0.0577765
-0.19062772 0.4457758 -0.1808021 0.20808995 -0.02964406 0.27140552 -0.032962244 0.23068759
0.22307354 0.008961376 -0.31999815 0.0018528034 -0.013495101 0.17340706 0.19111949 -0.055676434
-0.2546687 -0.36925566 -0.28351414 -0.08398858 0.20984675 -0.5165211 -0.04566366 0.27136695
-0.3222326 0.19569924 0.25943863 0.4224719 -0.088092744 0.09350995 -0.45432103 -0.07590016
0.27802604 0.32038617 0.23203222 -0.20356795 0.21288753 0.04582379 -0.24869394 0.57203555
0.21563345 0.002622893 0.27357092 0.20427245 0.20017236 0.23572123 -0.093295515 0.012414647
-0.04418173 0.042825945 0.1259664 -0.10770715 0.1549621 0.009316015 0.24931897 -0.34244472
0.19160531 0.12144016 -0.34499666 0.19655894 -0.18436338 -0.39214984 -0.04014196 -0.31421307
0.5901644 -0.078922555 -0.16624282 0.23851342 0.045591056 0.22737354 -0.019260125 0.21304101
0.105537914 0.5609466 -0.17275788 -0.24198891 -0.06534253 0.08351914 0.26689142 -0.04281512
0.18950824 0.10320309 0.2619582 -0.40160573 -0.24841563 0.09244278 -0.4127102 0.31870234
-0.4265668 0.12957212 0.09645013 0.3244292 -0.007039225 0.2379264 0.18854733 -0.479258
0.33241364 0.056655366 0.31748277 -0.17454581 0.14818256 -0.25238958 0.2911899 0.22673066
-0.20158108 0.0736097 0.20632675 0.14961794 0.31830823 0.02514058 -0.10272058 0.34543952
0.090679795 0.27531204 0.19065382 0.26436087 0.22963312 0.54767644 0.25750354 -0.3129337
-0.0148985125 0.07365675 0.38688862 0.26916897 0.029559188 0.3776079 -0.0031779914 -0.19795598
-0.2804286 0.6398448 -0.46532413 0.01807019 -0.0041058087 0.18767452 -0.09148452 0.23389843
0.2684834 0.42169666 -0.02244299 0.18096273 0.32587165 0.05173562 0.2030317 0.096114516
-0.5644334 0.05410253 -0.6752436 -0.5425551 -0.34675792 0.24020815 0.010486029 0.3187902
-0.4655635 -0.0131260585 -0.15269905 -0.20738934 -0.05646604 0.20918328 -0.047442757 -0.32832915
0.2002619 0.23669346 0.19798599 -0.36186168 0.21396273 -0.023127845 -0.46757838 -0.13869141
-0.43292204 0.02654056 0.43272668 0.15077043 -0.1690779 0.17148387 0.09026509 0.00558212
00000000: 8171 133d 7110 2cbe c207 4f3e 081b 943d
00000010: 0e61 7d3e 1c91 5f3d 7b68 783e e8de ccbe
00000020: 79ee 233e 8829 5c3e 6e50 333e 2c6d 4e3e
00000030: 7ab8 0fbf fb77 803d 1f57 763c 804e 793e
00000040: ec80 cebc 4cd7 c73e 5f06 b2be 1b2b 083e
00000050: 72bb 323d bfb8 493e daa1 dbbe 7e41 f83d
00000060: 01a2 f13d 8a1e a5be 489b 35be db82 2e3e
00000070: 0adb 3cbe 58a3 553e 1bf0 373e d248 4dbc
00000080: dddc 893e 8f4b 66be 55e3 333e 84bd 83be
00000090: bf84 ca3d 1755 41bc 0c99 e03d 2307 b83d
000000a0: c022 73be f0ee 133d b4fc 1a3e 6e28 583e
000000b0: 2298 273e a990 633e 4446 50bd 94d8 42be
000000c0: 6df4 8f3d 358e 5f3e 132a 023e 2e80 433e
000000d0: 095a 513e f186 733d 6ea1 b9be 1acc b83e
000000e0: 3065 363e aa7b e33c fd4c ec3e c2bf e33d
000000f0: 5be8 063f eb67 453e f965 9dbe 4362 d1bd
00000100: c265 8a3d f7b1 2e3e f69f 873d 16a3 24bf
00000110: fc59 babd 28d3 ad3e cfda d33d ac54 53be
00000120: 8195 003e 3f87 543e 299d 90be 0b82 fc3d
00000130: 17e2 2fbd ba81 37be 1186 30bd 0da7 6c3d
00000140: ea33 43be ba3c e43e 3024 39be 8815 553e
00000150: 1ad8 f2bc aaf5 8a3e 6b03 07bd 5e39 6c3e
00000160: 646d 643e bcd2 123c ccd6 a3be c4d9 f23a
00000170: 8e1a 5dbc 9f91 313e d4b4 433e f90c 64bd
00000180: f063 82be 140f bdbe c428 91be 3402 acbd
00000190: 11e2 563e ba3a 04bf d109 3bbd 9cf0 8a3e
000001a0: acfb a4be 6265 483e 24d5 843e 3d4e d83e
000001b0: f869 b4bd 2582 bf3d c49c e8be 8b71 9bbd
000001c0: 6e59 8e3e a809 a43e db99 6d3e 1e74 50be
000001d0: 30ff 593e bab1 3b3d a0a9 7ebe ec70 123f
000001e0: 04cf 5c3e d8e4 2b3b 7d11 8c3e cc2c 513e
000001f0: fcf9 4c3e e860 713e b811 bfbd ce66 4b3c
00000200: e7f7 34bd 426a 2f3d 56fd 003e 9195 dcbd
00000210: 62ae 1e3e 33a2 183c 794d 7f3e ea54 afbe
00000220: 2f34 443e 9eb5 f83d 67a3 b0be bf46 493e
00000230: c1c9 3cbe ddc7 c8be e56b 24bd 89e0 a0be
00000240: 0415 173f 26a2 a1bd 8f3b 2abe dd3c 743e
00000250: b0bd 3a3d 9cd4 683e 69c7 9dbc 6c27 5a3e
00000260: 4324 d83d 329a 0f3f 71e7 30be f1cb 77be
00000270: 4ed2 85bd 150c ab3d fea5 883e e85e 2fbd
00000280: 730e 423e 245c d33d 631f 863e 449f cdbe
00000290: ab60 7ebe a452 bd3d c04e d3be f42c a33e
000002a0: f766 dabe 8eae 043e a587 c53d 961b a63e
000002b0: 4da9 e6bb faa2 733e 8d12 413e 4e61 f5be
000002c0: 1f32 aa3e 750f 683d 1a8d a23e 23bc 32be
000002d0: 2bbd 173e 3539 81be d816 953e 152c 683e
000002e0: 456b 4ebe afc0 963d 5247 533e 7235 193e
000002f0: 4cf9 a23e 9ef3 cd3c 2b5f d2bd 73dd b03e
00000300: 54b6 b93d b3f5 8c3e c13a 433e 4f5a 873e
00000310: f224 6b3e 8634 0c3f 81d7 833e d938 a0be
00000320: e418 74bc 5ad9 963d 4416 c63e 84d0 893e
00000330: 1c26 f23c d355 c13e d945 50bb f9b4 4abe
00000340: 5694 8fbe decc 233f f73e eebe ef07 943c
00000350: 058a 86bb c02d 403e 3c5c bbbd 1283 6f3e
00000360: a876 893e a0e8 d73e 5dda b7bc 4b4e 393e
00000370: a6d8 a63e bbe8 533d 8be7 4f3e b0d7 c43d
00000380: b57e 10bf 9d9a 5d3d c4dc 2cbf e4e4 0abf
00000390: 418a b1be 20f9 753e 98cd 2b3c 7838 a33e
000003a0: 575e eebe ae0e 57bc 245d 1cbe df5d 54be
000003b0: ef48 67bd 2434 563e 5653 42bd c21a a8be
000003c0: 7511 4d3e c55f 723e d7bc 4a3e ef45 b9be
000003d0: 0c19 5b3e 9b76 bdbc 6f66 efbe 1f05 0ebe
000003e0: f5a7 ddbe 976b d93c 5a8e dd3e 9063 1a3e
000003f0: c222 2dbe 7899 2f3e e7dc b83d 37ea b63b

fc4.bias f4 [4]
0.28425092 0.22322983 0.27130884 0.19510311
00000000: 5689 913e 5c96 643e fee8 8a3e 1cc9 473e
